…
I0415 17:08:26.502933     1 net.cpp:296] The NetState phase (0) differed from the phase (1) specified by a rule in layer cifar
I0415 17:08:26.503461     1 net.cpp:53] Initializing net from parameters: 
name: "CIFAR10_mlp"
state {
  phase: TRAIN
  level: 0
  stage: ""
}
layer {
  name: "cifar"
  type: "Data"
  top: "data"
  top: "label"
  include {
    phase: TRAIN
  }
  transform_param {
    mean_file: "examples/cifar10/mean.binaryproto"
  }
  data_param {
    source: "examples/cifar10/cifar10_train_lmdb"
    batch_size: 100
    backend: LMDB
  }
}
layer {
  name: "ip11"
  type: "InnerProduct"
  bottom: "data"
  top: "ip11"
  param {
    lr_mult: 1
  }
  param {
    lr_mult: 2
  }
  inner_product_param {
    num_output: 512
    weight_filler {
      type: "xavier"
    }
    bias_filler {
      type: "constant"
    }
  }
}
layer {
  name: "relu1"
  type: "ReLU"
  bottom: "ip11"
  top: "ip11"
}
layer {
  name: "ip14"
  type: "InnerProduct"
  bottom: "ip11"
  top: "ip14"
  param {
    lr_mult: 1
  }
  param {
    lr_mult: 2
  }
  inner_product_param {
    num_output: 512
    weight_filler {
      type: "xavier"
    }
    bias_filler {
      type: "constant"
    }
  }
}
layer {
  name: "relu4"
  type: "ReLU"
  bottom: "ip14"
  top: "ip14"
}
layer {
  name: "ip15"
  type: "InnerProduct"
  bottom: "ip14"
  top: "ip15"
  param {
    lr_mult: 1
  }
  param {
    lr_mult: 2
  }
  inner_product_param {
    num_output: 512
    weight_filler {
      type: "xavier"
    }
    bias_filler {
      type: "constant"
    }
  }
}
layer {
  name: "relu5"
  type: "ReLU"
  bottom: "ip15"
  top: "ip15"
}
layer {
  name: "ip16"
  type: "InnerProduct"
  bottom: "ip15"
  top: "ip16"
  param {
    lr_mult: 1
  }
  param {
    lr_mult: 2
  }
  inner_product_param {
    num_output: 512
    weight_filler {
      type: "xavier"
    }
    bias_filler {
      type: "constant"
    }
  }
}
layer {
  name: "relu6"
  type: "ReLU"
  bottom: "ip16"
  top: "ip16"
}
layer {
  name: "ip17"
  type: "InnerProduct"
  bottom: "ip16"
  top: "ip17"
  param {
    lr_mult: 1
  }
  param {
    lr_mult: 2
  }
  inner_product_param {
    num_output: 512
    weight_filler {
      type: "xavier"
    }
    bias_filler {
      type: "constant"
    }
  }
}
layer {
  name: "relu7"
  type: "ReLU"
  bottom: "ip17"
  top: "ip17"
}
layer {
  name: "ip18"
  type: "InnerProduct"
  bottom: "ip17"
  top: "ip18"
  param {
    lr_mult: 1
  }
  param {
    lr_mult: 2
  }
  inner_product_param {
    num_output: 512
    weight_filler {
      type: "xavier"
    }
    bias_filler {
      type: "constant"
    }
  }
}
layer {
  name: "relu8"
  type: "ReLU"
  bottom: "ip18"
  top: "ip18"
}
layer {
  name: "encode1neuron"
  type: "Sigmoid"
  bottom: "ip18"
  top: "encode"
}
layer {
  name: "ip5"
  type: "InnerProduct"
  bottom: "encode"
  top: "ip6"
  param {
    lr_mult: 1
  }
  param {
    lr_mult: 2
  }
  inner_product_param {
    num_output: 512
    weight_filler {
      type: "gaussian"
      std: 0.1
    }
    bias_filler {
      type: "constant"
    }
  }
}
layer {
  name: "accuracy"
  type: "Accuracy"
  bottom: "ip6"
  bottom: "label"
  top: "accuracy"
}
layer {
  name: "loss"
  type: "SoftmaxWithLoss"
  bottom: "ip6"
  bottom: "label"
  top: "loss"
}
I0415 17:08:26.504024     1 layer_factory.hpp:77] Creating layer cifar
I0415 17:08:26.542284     1 db_lmdb.cpp:35] Opened lmdb examples/cifar10/cifar10_train_lmdb
I0415 17:08:26.544209     1 net.cpp:86] Creating Layer cifar
I0415 17:08:26.544610     1 net.cpp:382] cifar -> data
I0415 17:08:26.544878     1 net.cpp:382] cifar -> label
I0415 17:08:26.545125     1 data_transformer.cpp:25] Loading mean file from: examples/cifar10/mean.binaryproto
I0415 17:08:26.554064     1 data_layer.cpp:45] output data size: 100,3,32,32
I0415 17:08:26.554522     1 net.cpp:124] Setting up cifar
I0415 17:08:26.554754     1 net.cpp:131] Top shape: 100 3 32 32 (307200)
I0415 17:08:26.554965     1 net.cpp:131] Top shape: 100 (100)
I0415 17:08:26.555259     1 net.cpp:139] Memory required for data: 1229200
I0415 17:08:26.555465     1 layer_factory.hpp:77] Creating layer label_cifar_1_split
I0415 17:08:26.555698     1 net.cpp:86] Creating Layer label_cifar_1_split
I0415 17:08:26.555925     1 net.cpp:408] label_cifar_1_split <- label
I0415 17:08:26.556099     1 net.cpp:382] label_cifar_1_split -> label_cifar_1_split_0
I0415 17:08:26.556270     1 net.cpp:382] label_cifar_1_split -> label_cifar_1_split_1
I0415 17:08:26.556386     1 net.cpp:124] Setting up label_cifar_1_split
I0415 17:08:26.556421     1 net.cpp:131] Top shape: 100 (100)
I0415 17:08:26.556560     1 net.cpp:131] Top shape: 100 (100)
I0415 17:08:26.556762     1 net.cpp:139] Memory required for data: 1230000
I0415 17:08:26.556927     1 layer_factory.hpp:77] Creating layer ip11
I0415 17:08:26.557207     1 net.cpp:86] Creating Layer ip11
I0415 17:08:26.557334     1 net.cpp:408] ip11 <- data
I0415 17:08:26.557549     1 net.cpp:382] ip11 -> ip11
I0415 17:08:26.572002     1 net.cpp:124] Setting up ip11
I0415 17:08:26.572259     1 net.cpp:131] Top shape: 100 512 (51200)
I0415 17:08:26.572304     1 net.cpp:139] Memory required for data: 1434800
I0415 17:08:26.572602     1 layer_factory.hpp:77] Creating layer relu1
I0415 17:08:26.572841     1 net.cpp:86] Creating Layer relu1
I0415 17:08:26.572968     1 net.cpp:408] relu1 <- ip11
I0415 17:08:26.573163     1 net.cpp:369] relu1 -> ip11 (in-place)
I0415 17:08:26.573304     1 net.cpp:124] Setting up relu1
I0415 17:08:26.573335     1 net.cpp:131] Top shape: 100 512 (51200)
I0415 17:08:26.573454     1 net.cpp:139] Memory required for data: 1639600
I0415 17:08:26.573586     1 layer_factory.hpp:77] Creating layer ip14
I0415 17:08:26.573628     1 net.cpp:86] Creating Layer ip14
I0415 17:08:26.573753     1 net.cpp:408] ip14 <- ip11
I0415 17:08:26.573904     1 net.cpp:382] ip14 -> ip14
I0415 17:08:26.575923     1 net.cpp:124] Setting up ip14
I0415 17:08:26.576167     1 net.cpp:131] Top shape: 100 512 (51200)
I0415 17:08:26.576285     1 net.cpp:139] Memory required for data: 1844400
I0415 17:08:26.576447     1 layer_factory.hpp:77] Creating layer relu4
I0415 17:08:26.576483     1 net.cpp:86] Creating Layer relu4
I0415 17:08:26.576709     1 net.cpp:408] relu4 <- ip14
I0415 17:08:26.576756     1 net.cpp:369] relu4 -> ip14 (in-place)
I0415 17:08:26.577019     1 net.cpp:124] Setting up relu4
I0415 17:08:26.577304     1 net.cpp:131] Top shape: 100 512 (51200)
I0415 17:08:26.577421     1 net.cpp:139] Memory required for data: 2049200
I0415 17:08:26.577564     1 layer_factory.hpp:77] Creating layer ip15
I0415 17:08:26.577601     1 net.cpp:86] Creating Layer ip15
I0415 17:08:26.577724     1 net.cpp:408] ip15 <- ip14
I0415 17:08:26.577935     1 net.cpp:382] ip15 -> ip15
I0415 17:08:26.580024     1 net.cpp:124] Setting up ip15
I0415 17:08:26.580258     1 net.cpp:131] Top shape: 100 512 (51200)
I0415 17:08:26.580416     1 net.cpp:139] Memory required for data: 2254000
I0415 17:08:26.580566     1 layer_factory.hpp:77] Creating layer relu5
I0415 17:08:26.580601     1 net.cpp:86] Creating Layer relu5
I0415 17:08:26.580725     1 net.cpp:408] relu5 <- ip15
I0415 17:08:26.580855     1 net.cpp:369] relu5 -> ip15 (in-place)
I0415 17:08:26.580891     1 net.cpp:124] Setting up relu5
I0415 17:08:26.581008     1 net.cpp:131] Top shape: 100 512 (51200)
I0415 17:08:26.581248     1 net.cpp:139] Memory required for data: 2458800
I0415 17:08:26.581434     1 layer_factory.hpp:77] Creating layer ip16
I0415 17:08:26.581687     1 net.cpp:86] Creating Layer ip16
I0415 17:08:26.581797     1 net.cpp:408] ip16 <- ip15
I0415 17:08:26.581936     1 net.cpp:382] ip16 -> ip16
I0415 17:08:26.583983     1 net.cpp:124] Setting up ip16
I0415 17:08:26.584122     1 net.cpp:131] Top shape: 100 512 (51200)
I0415 17:08:26.584177     1 net.cpp:139] Memory required for data: 2663600
I0415 17:08:26.584316     1 layer_factory.hpp:77] Creating layer relu6
I0415 17:08:26.584456     1 net.cpp:86] Creating Layer relu6
I0415 17:08:26.584589     1 net.cpp:408] relu6 <- ip16
I0415 17:08:26.584628     1 net.cpp:369] relu6 -> ip16 (in-place)
I0415 17:08:26.584759     1 net.cpp:124] Setting up relu6
I0415 17:08:26.584957     1 net.cpp:131] Top shape: 100 512 (51200)
I0415 17:08:26.585075     1 net.cpp:139] Memory required for data: 2868400
I0415 17:08:26.585104     1 layer_factory.hpp:77] Creating layer ip17
I0415 17:08:26.585224     1 net.cpp:86] Creating Layer ip17
I0415 17:08:26.585371     1 net.cpp:408] ip17 <- ip16
I0415 17:08:26.585410     1 net.cpp:382] ip17 -> ip17
I0415 17:08:26.587421     1 net.cpp:124] Setting up ip17
I0415 17:08:26.587687     1 net.cpp:131] Top shape: 100 512 (51200)
I0415 17:08:26.587827     1 net.cpp:139] Memory required for data: 3073200
I0415 17:08:26.587996     1 layer_factory.hpp:77] Creating layer relu7
I0415 17:08:26.588157     1 net.cpp:86] Creating Layer relu7
I0415 17:08:26.588361     1 net.cpp:408] relu7 <- ip17
I0415 17:08:26.588569     1 net.cpp:369] relu7 -> ip17 (in-place)
I0415 17:08:26.588776     1 net.cpp:124] Setting up relu7
I0415 17:08:26.588973     1 net.cpp:131] Top shape: 100 512 (51200)
I0415 17:08:26.589095     1 net.cpp:139] Memory required for data: 3278000
I0415 17:08:26.589126     1 layer_factory.hpp:77] Creating layer ip18
I0415 17:08:26.589249     1 net.cpp:86] Creating Layer ip18
I0415 17:08:26.589393     1 net.cpp:408] ip18 <- ip17
I0415 17:08:26.589434     1 net.cpp:382] ip18 -> ip18
I0415 17:08:26.591624     1 net.cpp:124] Setting up ip18
I0415 17:08:26.591868     1 net.cpp:131] Top shape: 100 512 (51200)
I0415 17:08:26.592022     1 net.cpp:139] Memory required for data: 3482800
I0415 17:08:26.592165     1 layer_factory.hpp:77] Creating layer relu8
I0415 17:08:26.592200     1 net.cpp:86] Creating Layer relu8
I0415 17:08:26.592407     1 net.cpp:408] relu8 <- ip18
I0415 17:08:26.592586     1 net.cpp:369] relu8 -> ip18 (in-place)
I0415 17:08:26.592710     1 net.cpp:124] Setting up relu8
I0415 17:08:26.592846     1 net.cpp:131] Top shape: 100 512 (51200)
I0415 17:08:26.592877     1 net.cpp:139] Memory required for data: 3687600
I0415 17:08:26.593001     1 layer_factory.hpp:77] Creating layer encode1neuron
I0415 17:08:26.593150     1 net.cpp:86] Creating Layer encode1neuron
I0415 17:08:26.593180     1 net.cpp:408] encode1neuron <- ip18
I0415 17:08:26.593305     1 net.cpp:382] encode1neuron -> encode
I0415 17:08:26.593523     1 net.cpp:124] Setting up encode1neuron
I0415 17:08:26.593652     1 net.cpp:131] Top shape: 100 512 (51200)
I0415 17:08:26.593683     1 net.cpp:139] Memory required for data: 3892400
I0415 17:08:26.593704     1 layer_factory.hpp:77] Creating layer ip5
I0415 17:08:26.593948     1 net.cpp:86] Creating Layer ip5
I0415 17:08:26.593977     1 net.cpp:408] ip5 <- encode
I0415 17:08:26.594097     1 net.cpp:382] ip5 -> ip6
I0415 17:08:26.597642     1 net.cpp:124] Setting up ip5
I0415 17:08:26.597892     1 net.cpp:131] Top shape: 100 512 (51200)
I0415 17:08:26.598001     1 net.cpp:139] Memory required for data: 4097200
I0415 17:08:26.598141     1 layer_factory.hpp:77] Creating layer ip6_ip5_0_split
I0415 17:08:26.598179     1 net.cpp:86] Creating Layer ip6_ip5_0_split
I0415 17:08:26.598299     1 net.cpp:408] ip6_ip5_0_split <- ip6
I0415 17:08:26.598440     1 net.cpp:382] ip6_ip5_0_split -> ip6_ip5_0_split_0
I0415 17:08:26.598589     1 net.cpp:382] ip6_ip5_0_split -> ip6_ip5_0_split_1
I0415 17:08:26.598732     1 net.cpp:124] Setting up ip6_ip5_0_split
I0415 17:08:26.598886     1 net.cpp:131] Top shape: 100 512 (51200)
I0415 17:08:26.599082     1 net.cpp:131] Top shape: 100 512 (51200)
I0415 17:08:26.599277     1 net.cpp:139] Memory required for data: 4506800
I0415 17:08:26.599462     1 layer_factory.hpp:77] Creating layer accuracy
I0415 17:08:26.599602     1 net.cpp:86] Creating Layer accuracy
I0415 17:08:26.599632     1 net.cpp:408] accuracy <- ip6_ip5_0_split_0
I0415 17:08:26.599761     1 net.cpp:408] accuracy <- label_cifar_1_split_0
I0415 17:08:26.599967     1 net.cpp:382] accuracy -> accuracy
…
