…
I0415 11:42:13.228338     1 net.cpp:296] The NetState phase (0) differed from the phase (1) specified by a rule in layer cifar
I0415 11:42:13.228792     1 net.cpp:53] Initializing net from parameters: 
name: "CIFAR10_mlp"
state {
  phase: TRAIN
  level: 0
  stage: ""
}
layer {
  name: "cifar"
  type: "Data"
  top: "data"
  top: "label"
  include {
    phase: TRAIN
  }
  transform_param {
    mean_file: "examples/cifar10/mean.binaryproto"
  }
  data_param {
    source: "examples/cifar10/cifar10_train_lmdb"
    batch_size: 100
    backend: LMDB
  }
}
layer {
  name: "ip11"
  type: "InnerProduct"
  bottom: "data"
  top: "ip11"
  param {
    lr_mult: 1
  }
  param {
    lr_mult: 2
  }
  inner_product_param {
    num_output: 512
    weight_filler {
      type: "xavier"
    }
    bias_filler {
      type: "constant"
    }
  }
}
layer {
  name: "relu1"
  type: "ReLU"
  bottom: "ip11"
  top: "ip11"
}
layer {
  name: "ip14"
  type: "InnerProduct"
  bottom: "ip11"
  top: "ip14"
  param {
    lr_mult: 1
  }
  param {
    lr_mult: 2
  }
  inner_product_param {
    num_output: 512
    weight_filler {
      type: "xavier"
    }
    bias_filler {
      type: "constant"
    }
  }
}
layer {
  name: "relu4"
  type: "ReLU"
  bottom: "ip14"
  top: "ip14"
}
layer {
  name: "ip15"
  type: "InnerProduct"
  bottom: "ip14"
  top: "ip15"
  param {
    lr_mult: 1
  }
  param {
    lr_mult: 2
  }
  inner_product_param {
    num_output: 512
    weight_filler {
      type: "xavier"
    }
    bias_filler {
      type: "constant"
    }
  }
}
layer {
  name: "relu5"
  type: "ReLU"
  bottom: "ip15"
  top: "ip15"
}
layer {
  name: "ip5"
  type: "InnerProduct"
  bottom: "ip15"
  top: "ip6"
  param {
    lr_mult: 1
  }
  param {
    lr_mult: 2
  }
  inner_product_param {
    num_output: 512
    weight_filler {
      type: "gaussian"
      std: 0.1
    }
    bias_filler {
      type: "constant"
    }
  }
}
layer {
  name: "accuracy"
  type: "Accuracy"
  bottom: "ip6"
  bottom: "label"
  top: "accuracy"
}
layer {
  name: "loss"
  type: "SoftmaxWithLoss"
  bottom: "ip6"
  bottom: "label"
  top: "loss"
}
I0415 11:42:13.229125     1 layer_factory.hpp:77] Creating layer cifar
I0415 11:42:13.269975     1 db_lmdb.cpp:35] Opened lmdb examples/cifar10/cifar10_train_lmdb
I0415 11:42:13.271908     1 net.cpp:86] Creating Layer cifar
I0415 11:42:13.272017     1 net.cpp:382] cifar -> data
I0415 11:42:13.272272     1 net.cpp:382] cifar -> label
I0415 11:42:13.272444     1 data_transformer.cpp:25] Loading mean file from: examples/cifar10/mean.binaryproto
I0415 11:42:13.274983     1 data_layer.cpp:45] output data size: 100,3,32,32
I0415 11:42:13.275483     1 net.cpp:124] Setting up cifar
I0415 11:42:13.275550     1 net.cpp:131] Top shape: 100 3 32 32 (307200)
I0415 11:42:13.275585     1 net.cpp:131] Top shape: 100 (100)
I0415 11:42:13.275616     1 net.cpp:139] Memory required for data: 1229200
I0415 11:42:13.275646     1 layer_factory.hpp:77] Creating layer label_cifar_1_split
I0415 11:42:13.275722     1 net.cpp:86] Creating Layer label_cifar_1_split
I0415 11:42:13.275809     1 net.cpp:408] label_cifar_1_split <- label
I0415 11:42:13.276020     1 net.cpp:382] label_cifar_1_split -> label_cifar_1_split_0
I0415 11:42:13.277039     1 net.cpp:382] label_cifar_1_split -> label_cifar_1_split_1
I0415 11:42:13.277143     1 net.cpp:124] Setting up label_cifar_1_split
I0415 11:42:13.277174     1 net.cpp:131] Top shape: 100 (100)
I0415 11:42:13.277200     1 net.cpp:131] Top shape: 100 (100)
I0415 11:42:13.277220     1 net.cpp:139] Memory required for data: 1230000
I0415 11:42:13.277258     1 layer_factory.hpp:77] Creating layer ip11
I0415 11:42:13.277381     1 net.cpp:86] Creating Layer ip11
I0415 11:42:13.277511     1 net.cpp:408] ip11 <- data
I0415 11:42:13.277546     1 net.cpp:382] ip11 -> ip11
I0415 11:42:13.294124     1 net.cpp:124] Setting up ip11
I0415 11:42:13.294258     1 net.cpp:131] Top shape: 100 512 (51200)
I0415 11:42:13.294287     1 net.cpp:139] Memory required for data: 1434800
I0415 11:42:13.294487     1 layer_factory.hpp:77] Creating layer relu1
I0415 11:42:13.294574     1 net.cpp:86] Creating Layer relu1
I0415 11:42:13.294617     1 net.cpp:408] relu1 <- ip11
I0415 11:42:13.294658     1 net.cpp:369] relu1 -> ip11 (in-place)
I0415 11:42:13.294787     1 net.cpp:124] Setting up relu1
I0415 11:42:13.294901     1 net.cpp:131] Top shape: 100 512 (51200)
I0415 11:42:13.294944     1 net.cpp:139] Memory required for data: 1639600
I0415 11:42:13.294971     1 layer_factory.hpp:77] Creating layer ip14
I0415 11:42:13.295014     1 net.cpp:86] Creating Layer ip14
I0415 11:42:13.295040     1 net.cpp:408] ip14 <- ip11
I0415 11:42:13.295212     1 net.cpp:382] ip14 -> ip14
I0415 11:42:13.297824     1 net.cpp:124] Setting up ip14
I0415 11:42:13.297909     1 net.cpp:131] Top shape: 100 512 (51200)
I0415 11:42:13.298027     1 net.cpp:139] Memory required for data: 1844400
I0415 11:42:13.298136     1 layer_factory.hpp:77] Creating layer relu4
I0415 11:42:13.298177     1 net.cpp:86] Creating Layer relu4
I0415 11:42:13.298202     1 net.cpp:408] relu4 <- ip14
I0415 11:42:13.298228     1 net.cpp:369] relu4 -> ip14 (in-place)
I0415 11:42:13.298254     1 net.cpp:124] Setting up relu4
I0415 11:42:13.298279     1 net.cpp:131] Top shape: 100 512 (51200)
I0415 11:42:13.298300     1 net.cpp:139] Memory required for data: 2049200
I0415 11:42:13.298321     1 layer_factory.hpp:77] Creating layer ip15
I0415 11:42:13.298421     1 net.cpp:86] Creating Layer ip15
I0415 11:42:13.298512     1 net.cpp:408] ip15 <- ip14
I0415 11:42:13.298557     1 net.cpp:382] ip15 -> ip15
I0415 11:42:13.300765     1 net.cpp:124] Setting up ip15
I0415 11:42:13.300853     1 net.cpp:131] Top shape: 100 512 (51200)
I0415 11:42:13.300879     1 net.cpp:139] Memory required for data: 2254000
I0415 11:42:13.300998     1 layer_factory.hpp:77] Creating layer relu5
I0415 11:42:13.301337     1 net.cpp:86] Creating Layer relu5
I0415 11:42:13.301425     1 net.cpp:408] relu5 <- ip15
I0415 11:42:13.301539     1 net.cpp:369] relu5 -> ip15 (in-place)
I0415 11:42:13.301653     1 net.cpp:124] Setting up relu5
I0415 11:42:13.301694     1 net.cpp:131] Top shape: 100 512 (51200)
I0415 11:42:13.301718     1 net.cpp:139] Memory required for data: 2458800
I0415 11:42:13.301750     1 layer_factory.hpp:77] Creating layer ip5
I0415 11:42:13.301790     1 net.cpp:86] Creating Layer ip5
I0415 11:42:13.301949     1 net.cpp:408] ip5 <- ip15
I0415 11:42:13.301995     1 net.cpp:382] ip5 -> ip6
I0415 11:42:13.305704     1 net.cpp:124] Setting up ip5
I0415 11:42:13.305982     1 net.cpp:131] Top shape: 100 512 (51200)
I0415 11:42:13.306098     1 net.cpp:139] Memory required for data: 2663600
I0415 11:42:13.306316     1 layer_factory.hpp:77] Creating layer ip6_ip5_0_split
I0415 11:42:13.306514     1 net.cpp:86] Creating Layer ip6_ip5_0_split
I0415 11:42:13.306663     1 net.cpp:408] ip6_ip5_0_split <- ip6
I0415 11:42:13.306696     1 net.cpp:382] ip6_ip5_0_split -> ip6_ip5_0_split_0
I0415 11:42:13.306814     1 net.cpp:382] ip6_ip5_0_split -> ip6_ip5_0_split_1
I0415 11:42:13.306944     1 net.cpp:124] Setting up ip6_ip5_0_split
I0415 11:42:13.306984     1 net.cpp:131] Top shape: 100 512 (51200)
I0415 11:42:13.307013     1 net.cpp:131] Top shape: 100 512 (51200)
I0415 11:42:13.307044     1 net.cpp:139] Memory required for data: 3073200
I0415 11:42:13.307170     1 layer_factory.hpp:77] Creating layer accuracy
I0415 11:42:13.307265     1 net.cpp:86] Creating Layer accuracy
I0415 11:42:13.307302     1 net.cpp:408] accuracy <- ip6_ip5_0_split_0
I0415 11:42:13.307328     1 net.cpp:408] accuracy <- label_cifar_1_split_0
I0415 11:42:13.307355     1 net.cpp:382] accuracy -> accuracy
…
