…
I0415 18:15:21.432353     1 net.cpp:296] The NetState phase (0) differed from the phase (1) specified by a rule in layer cifar
I0415 18:15:21.432879     1 net.cpp:53] Initializing net from parameters: 
name: "CIFAR10_mlp"
state {
  phase: TRAIN
  level: 0
  stage: ""
}
layer {
  name: "cifar"
  type: "Data"
  top: "data"
  top: "label"
  include {
    phase: TRAIN
  }
  transform_param {
    mean_file: "examples/cifar10/mean.binaryproto"
  }
  data_param {
    source: "examples/cifar10/cifar10_train_lmdb"
    batch_size: 100
    backend: LMDB
  }
}
layer {
  name: "ip11"
  type: "InnerProduct"
  bottom: "data"
  top: "ip11"
  param {
    lr_mult: 1
  }
  param {
    lr_mult: 2
  }
  inner_product_param {
    num_output: 512
    weight_filler {
      type: "xavier"
    }
    bias_filler {
      type: "constant"
    }
  }
}
layer {
  name: "relu1"
  type: "ReLU"
  bottom: "ip11"
  top: "ip11"
}
layer {
  name: "ip14"
  type: "InnerProduct"
  bottom: "ip11"
  top: "ip14"
  param {
    lr_mult: 1
  }
  param {
    lr_mult: 2
  }
  inner_product_param {
    num_output: 512
    weight_filler {
      type: "xavier"
    }
    bias_filler {
      type: "constant"
    }
  }
}
layer {
  name: "relu4"
  type: "ReLU"
  bottom: "ip14"
  top: "ip14"
}
layer {
  name: "ip15"
  type: "InnerProduct"
  bottom: "ip14"
  top: "ip15"
  param {
    lr_mult: 1
  }
  param {
    lr_mult: 2
  }
  inner_product_param {
    num_output: 512
    weight_filler {
      type: "xavier"
    }
    bias_filler {
      type: "constant"
    }
  }
}
layer {
  name: "relu5"
  type: "ReLU"
  bottom: "ip15"
  top: "ip15"
}
layer {
  name: "ip16"
  type: "InnerProduct"
  bottom: "ip15"
  top: "ip16"
  param {
    lr_mult: 1
  }
  param {
    lr_mult: 2
  }
  inner_product_param {
    num_output: 512
    weight_filler {
      type: "xavier"
    }
    bias_filler {
      type: "constant"
    }
  }
}
layer {
  name: "relu6"
  type: "ReLU"
  bottom: "ip16"
  top: "ip16"
}
layer {
  name: "ip17"
  type: "InnerProduct"
  bottom: "ip16"
  top: "ip17"
  param {
    lr_mult: 1
  }
  param {
    lr_mult: 2
  }
  inner_product_param {
    num_output: 512
    weight_filler {
      type: "xavier"
    }
    bias_filler {
      type: "constant"
    }
  }
}
layer {
  name: "relu7"
  type: "ReLU"
  bottom: "ip17"
  top: "ip17"
}
layer {
  name: "ip18"
  type: "InnerProduct"
  bottom: "ip17"
  top: "ip18"
  param {
    lr_mult: 1
  }
  param {
    lr_mult: 2
  }
  inner_product_param {
    num_output: 512
    weight_filler {
      type: "xavier"
    }
    bias_filler {
      type: "constant"
    }
  }
}
layer {
  name: "relu8"
  type: "ReLU"
  bottom: "ip18"
  top: "ip18"
}
layer {
  name: "ip19"
  type: "InnerProduct"
  bottom: "ip18"
  top: "ip19"
  param {
    lr_mult: 1
  }
  param {
    lr_mult: 2
  }
  inner_product_param {
    num_output: 512
    weight_filler {
      type: "xavier"
    }
    bias_filler {
      type: "constant"
    }
  }
}
layer {
  name: "relu9"
  type: "ReLU"
  bottom: "ip19"
  top: "ip19"
}
layer {
  name: "encode1neuron"
  type: "Sigmoid"
  bottom: "ip19"
  top: "encode"
}
layer {
  name: "ip5"
  type: "InnerProduct"
  bottom: "encode"
  top: "ip6"
  param {
    lr_mult: 1
  }
  param {
    lr_mult: 2
  }
  inner_product_param {
    num_output: 512
    weight_filler {
      type: "gaussian"
      std: 0.1
    }
    bias_filler {
      type: "constant"
    }
  }
}
layer {
  name: "accuracy"
  type: "Accuracy"
  bottom: "ip6"
  bottom: "label"
  top: "accuracy"
}
layer {
  name: "loss"
  type: "SoftmaxWithLoss"
  bottom: "ip6"
  bottom: "label"
  top: "loss"
}
I0415 18:15:21.433327     1 layer_factory.hpp:77] Creating layer cifar
I0415 18:15:21.470263     1 db_lmdb.cpp:35] Opened lmdb examples/cifar10/cifar10_train_lmdb
I0415 18:15:21.472018     1 net.cpp:86] Creating Layer cifar
I0415 18:15:21.472082     1 net.cpp:382] cifar -> data
I0415 18:15:21.472128     1 net.cpp:382] cifar -> label
I0415 18:15:21.472240     1 data_transformer.cpp:25] Loading mean file from: examples/cifar10/mean.binaryproto
I0415 18:15:21.474731     1 data_layer.cpp:45] output data size: 100,3,32,32
I0415 18:15:21.475270     1 net.cpp:124] Setting up cifar
I0415 18:15:21.475317     1 net.cpp:131] Top shape: 100 3 32 32 (307200)
I0415 18:15:21.475329     1 net.cpp:131] Top shape: 100 (100)
I0415 18:15:21.475334     1 net.cpp:139] Memory required for data: 1229200
I0415 18:15:21.475347     1 layer_factory.hpp:77] Creating layer label_cifar_1_split
I0415 18:15:21.475366     1 net.cpp:86] Creating Layer label_cifar_1_split
I0415 18:15:21.475419     1 net.cpp:408] label_cifar_1_split <- label
I0415 18:15:21.475436     1 net.cpp:382] label_cifar_1_split -> label_cifar_1_split_0
I0415 18:15:21.475450     1 net.cpp:382] label_cifar_1_split -> label_cifar_1_split_1
I0415 18:15:21.475463     1 net.cpp:124] Setting up label_cifar_1_split
I0415 18:15:21.475518     1 net.cpp:131] Top shape: 100 (100)
I0415 18:15:21.475587     1 net.cpp:131] Top shape: 100 (100)
I0415 18:15:21.475610     1 net.cpp:139] Memory required for data: 1230000
I0415 18:15:21.475616     1 layer_factory.hpp:77] Creating layer ip11
I0415 18:15:21.475633     1 net.cpp:86] Creating Layer ip11
I0415 18:15:21.475639     1 net.cpp:408] ip11 <- data
I0415 18:15:21.475668     1 net.cpp:382] ip11 -> ip11
I0415 18:15:21.493049     1 net.cpp:124] Setting up ip11
I0415 18:15:21.493127     1 net.cpp:131] Top shape: 100 512 (51200)
I0415 18:15:21.493135     1 net.cpp:139] Memory required for data: 1434800
I0415 18:15:21.493166     1 layer_factory.hpp:77] Creating layer relu1
I0415 18:15:21.493180     1 net.cpp:86] Creating Layer relu1
I0415 18:15:21.493186     1 net.cpp:408] relu1 <- ip11
I0415 18:15:21.493199     1 net.cpp:369] relu1 -> ip11 (in-place)
I0415 18:15:21.493211     1 net.cpp:124] Setting up relu1
I0415 18:15:21.493218     1 net.cpp:131] Top shape: 100 512 (51200)
I0415 18:15:21.493372     1 net.cpp:139] Memory required for data: 1639600
I0415 18:15:21.493576     1 layer_factory.hpp:77] Creating layer ip14
I0415 18:15:21.493634     1 net.cpp:86] Creating Layer ip14
I0415 18:15:21.493647     1 net.cpp:408] ip14 <- ip11
I0415 18:15:21.493662     1 net.cpp:382] ip14 -> ip14
I0415 18:15:21.495714     1 net.cpp:124] Setting up ip14
I0415 18:15:21.495754     1 net.cpp:131] Top shape: 100 512 (51200)
I0415 18:15:21.495761     1 net.cpp:139] Memory required for data: 1844400
I0415 18:15:21.495775     1 layer_factory.hpp:77] Creating layer relu4
I0415 18:15:21.495785     1 net.cpp:86] Creating Layer relu4
I0415 18:15:21.495872     1 net.cpp:408] relu4 <- ip14
I0415 18:15:21.496080     1 net.cpp:369] relu4 -> ip14 (in-place)
I0415 18:15:21.496112     1 net.cpp:124] Setting up relu4
I0415 18:15:21.496130     1 net.cpp:131] Top shape: 100 512 (51200)
I0415 18:15:21.496142     1 net.cpp:139] Memory required for data: 2049200
I0415 18:15:21.496156     1 layer_factory.hpp:77] Creating layer ip15
I0415 18:15:21.496248     1 net.cpp:86] Creating Layer ip15
I0415 18:15:21.496290     1 net.cpp:408] ip15 <- ip14
I0415 18:15:21.496306     1 net.cpp:382] ip15 -> ip15
I0415 18:15:21.499248     1 net.cpp:124] Setting up ip15
I0415 18:15:21.499305     1 net.cpp:131] Top shape: 100 512 (51200)
I0415 18:15:21.499313     1 net.cpp:139] Memory required for data: 2254000
I0415 18:15:21.499418     1 layer_factory.hpp:77] Creating layer relu5
I0415 18:15:21.499430     1 net.cpp:86] Creating Layer relu5
I0415 18:15:21.499580     1 net.cpp:408] relu5 <- ip15
I0415 18:15:21.499634     1 net.cpp:369] relu5 -> ip15 (in-place)
I0415 18:15:21.499655     1 net.cpp:124] Setting up relu5
I0415 18:15:21.499668     1 net.cpp:131] Top shape: 100 512 (51200)
I0415 18:15:21.499675     1 net.cpp:139] Memory required for data: 2458800
I0415 18:15:21.499737     1 layer_factory.hpp:77] Creating layer ip16
I0415 18:15:21.499758     1 net.cpp:86] Creating Layer ip16
I0415 18:15:21.499765     1 net.cpp:408] ip16 <- ip15
I0415 18:15:21.499774     1 net.cpp:382] ip16 -> ip16
I0415 18:15:21.502544     1 net.cpp:124] Setting up ip16
I0415 18:15:21.502590     1 net.cpp:131] Top shape: 100 512 (51200)
I0415 18:15:21.502599     1 net.cpp:139] Memory required for data: 2663600
I0415 18:15:21.502610     1 layer_factory.hpp:77] Creating layer relu6
I0415 18:15:21.502701     1 net.cpp:86] Creating Layer relu6
I0415 18:15:21.502729     1 net.cpp:408] relu6 <- ip16
I0415 18:15:21.502837     1 net.cpp:369] relu6 -> ip16 (in-place)
I0415 18:15:21.502936     1 net.cpp:124] Setting up relu6
I0415 18:15:21.502955     1 net.cpp:131] Top shape: 100 512 (51200)
I0415 18:15:21.502964     1 net.cpp:139] Memory required for data: 2868400
I0415 18:15:21.502971     1 layer_factory.hpp:77] Creating layer ip17
I0415 18:15:21.502985     1 net.cpp:86] Creating Layer ip17
I0415 18:15:21.502995     1 net.cpp:408] ip17 <- ip16
I0415 18:15:21.503078     1 net.cpp:382] ip17 -> ip17
I0415 18:15:21.505441     1 net.cpp:124] Setting up ip17
I0415 18:15:21.505491     1 net.cpp:131] Top shape: 100 512 (51200)
I0415 18:15:21.505498     1 net.cpp:139] Memory required for data: 3073200
I0415 18:15:21.505512     1 layer_factory.hpp:77] Creating layer relu7
I0415 18:15:21.505522     1 net.cpp:86] Creating Layer relu7
I0415 18:15:21.505527     1 net.cpp:408] relu7 <- ip17
I0415 18:15:21.505544     1 net.cpp:369] relu7 -> ip17 (in-place)
I0415 18:15:21.505555     1 net.cpp:124] Setting up relu7
I0415 18:15:21.505561     1 net.cpp:131] Top shape: 100 512 (51200)
I0415 18:15:21.505633     1 net.cpp:139] Memory required for data: 3278000
I0415 18:15:21.505667     1 layer_factory.hpp:77] Creating layer ip18
I0415 18:15:21.505681     1 net.cpp:86] Creating Layer ip18
I0415 18:15:21.505688     1 net.cpp:408] ip18 <- ip17
I0415 18:15:21.505842     1 net.cpp:382] ip18 -> ip18
I0415 18:15:21.508157     1 net.cpp:124] Setting up ip18
I0415 18:15:21.508198     1 net.cpp:131] Top shape: 100 512 (51200)
I0415 18:15:21.508204     1 net.cpp:139] Memory required for data: 3482800
I0415 18:15:21.508214     1 layer_factory.hpp:77] Creating layer relu8
I0415 18:15:21.508224     1 net.cpp:86] Creating Layer relu8
I0415 18:15:21.508229     1 net.cpp:408] relu8 <- ip18
I0415 18:15:21.508237     1 net.cpp:369] relu8 -> ip18 (in-place)
I0415 18:15:21.508256     1 net.cpp:124] Setting up relu8
I0415 18:15:21.508262     1 net.cpp:131] Top shape: 100 512 (51200)
I0415 18:15:21.508267     1 net.cpp:139] Memory required for data: 3687600
I0415 18:15:21.508272     1 layer_factory.hpp:77] Creating layer ip19
I0415 18:15:21.508375     1 net.cpp:86] Creating Layer ip19
I0415 18:15:21.508385     1 net.cpp:408] ip19 <- ip18
I0415 18:15:21.508527     1 net.cpp:382] ip19 -> ip19
I0415 18:15:21.510743     1 net.cpp:124] Setting up ip19
I0415 18:15:21.510783     1 net.cpp:131] Top shape: 100 512 (51200)
I0415 18:15:21.510789     1 net.cpp:139] Memory required for data: 3892400
I0415 18:15:21.510799     1 layer_factory.hpp:77] Creating layer relu9
I0415 18:15:21.510823     1 net.cpp:86] Creating Layer relu9
I0415 18:15:21.510829     1 net.cpp:408] relu9 <- ip19
I0415 18:15:21.510838     1 net.cpp:369] relu9 -> ip19 (in-place)
I0415 18:15:21.510848     1 net.cpp:124] Setting up relu9
I0415 18:15:21.510854     1 net.cpp:131] Top shape: 100 512 (51200)
I0415 18:15:21.510859     1 net.cpp:139] Memory required for data: 4097200
I0415 18:15:21.510936     1 layer_factory.hpp:77] Creating layer encode1neuron
I0415 18:15:21.511343     1 net.cpp:86] Creating Layer encode1neuron
I0415 18:15:21.511380     1 net.cpp:408] encode1neuron <- ip19
I0415 18:15:21.511411     1 net.cpp:382] encode1neuron -> encode
I0415 18:15:21.511467     1 net.cpp:124] Setting up encode1neuron
I0415 18:15:21.511651     1 net.cpp:131] Top shape: 100 512 (51200)
I0415 18:15:21.511709     1 net.cpp:139] Memory required for data: 4302000
I0415 18:15:21.511723     1 layer_factory.hpp:77] Creating layer ip5
I0415 18:15:21.511745     1 net.cpp:86] Creating Layer ip5
I0415 18:15:21.511754     1 net.cpp:408] ip5 <- encode
I0415 18:15:21.511765     1 net.cpp:382] ip5 -> ip6
I0415 18:15:21.515213     1 net.cpp:124] Setting up ip5
I0415 18:15:21.515254     1 net.cpp:131] Top shape: 100 512 (51200)
I0415 18:15:21.515270     1 net.cpp:139] Memory required for data: 4506800
I0415 18:15:21.515281     1 layer_factory.hpp:77] Creating layer ip6_ip5_0_split
I0415 18:15:21.515291     1 net.cpp:86] Creating Layer ip6_ip5_0_split
I0415 18:15:21.515297     1 net.cpp:408] ip6_ip5_0_split <- ip6
I0415 18:15:21.515305     1 net.cpp:382] ip6_ip5_0_split -> ip6_ip5_0_split_0
I0415 18:15:21.515316     1 net.cpp:382] ip6_ip5_0_split -> ip6_ip5_0_split_1
I0415 18:15:21.515326     1 net.cpp:124] Setting up ip6_ip5_0_split
I0415 18:15:21.515389     1 net.cpp:131] Top shape: 100 512 (51200)
I0415 18:15:21.515416     1 net.cpp:131] Top shape: 100 512 (51200)
I0415 18:15:21.515424     1 net.cpp:139] Memory required for data: 4916400
I0415 18:15:21.515434     1 layer_factory.hpp:77] Creating layer accuracy
I0415 18:15:21.515542     1 net.cpp:86] Creating Layer accuracy
I0415 18:15:21.515599     1 net.cpp:408] accuracy <- ip6_ip5_0_split_0
I0415 18:15:21.515647     1 net.cpp:408] accuracy <- label_cifar_1_split_0
I0415 18:15:21.515666     1 net.cpp:382] accuracy -> accuracy
…
