…
I0415 12:03:59.111526     1 net.cpp:296] The NetState phase (0) differed from the phase (1) specified by a rule in layer cifar
I0415 12:03:59.112025     1 net.cpp:53] Initializing net from parameters: 
name: "CIFAR10_mlp"
state {
  phase: TRAIN
  level: 0
  stage: ""
}
layer {
  name: "cifar"
  type: "Data"
  top: "data"
  top: "label"
  include {
    phase: TRAIN
  }
  transform_param {
    mean_file: "examples/cifar10/mean.binaryproto"
  }
  data_param {
    source: "examples/cifar10/cifar10_train_lmdb"
    batch_size: 100
    backend: LMDB
  }
}
layer {
  name: "ip11"
  type: "InnerProduct"
  bottom: "data"
  top: "ip11"
  param {
    lr_mult: 1
  }
  param {
    lr_mult: 2
  }
  inner_product_param {
    num_output: 512
    weight_filler {
      type: "xavier"
    }
    bias_filler {
      type: "constant"
    }
  }
}
layer {
  name: "relu1"
  type: "ReLU"
  bottom: "ip11"
  top: "ip11"
}
layer {
  name: "ip14"
  type: "InnerProduct"
  bottom: "ip11"
  top: "ip14"
  param {
    lr_mult: 1
  }
  param {
    lr_mult: 2
  }
  inner_product_param {
    num_output: 512
    weight_filler {
      type: "xavier"
    }
    bias_filler {
      type: "constant"
    }
  }
}
layer {
  name: "relu4"
  type: "ReLU"
  bottom: "ip14"
  top: "ip14"
}
layer {
  name: "ip15"
  type: "InnerProduct"
  bottom: "ip14"
  top: "ip15"
  param {
    lr_mult: 1
  }
  param {
    lr_mult: 2
  }
  inner_product_param {
    num_output: 512
    weight_filler {
      type: "xavier"
    }
    bias_filler {
      type: "constant"
    }
  }
}
layer {
  name: "relu5"
  type: "ReLU"
  bottom: "ip15"
  top: "ip15"
}
layer {
  name: "ip5"
  type: "InnerProduct"
  bottom: "ip15"
  top: "ip6"
  param {
    lr_mult: 1
  }
  param {
    lr_mult: 2
  }
  inner_product_param {
    num_output: 512
    weight_filler {
      type: "gaussian"
      std: 0.1
    }
    bias_filler {
      type: "constant"
    }
  }
}
layer {
  name: "accuracy"
  type: "Accuracy"
  bottom: "ip6"
  bottom: "label"
  top: "accuracy"
}
layer {
  name: "loss"
  type: "SoftmaxWithLoss"
  bottom: "ip6"
  bottom: "label"
  top: "loss"
}
I0415 12:03:59.112236     1 layer_factory.hpp:77] Creating layer cifar
I0415 12:03:59.155442     1 db_lmdb.cpp:35] Opened lmdb examples/cifar10/cifar10_train_lmdb
I0415 12:03:59.159538     1 net.cpp:86] Creating Layer cifar
I0415 12:03:59.159615     1 net.cpp:382] cifar -> data
I0415 12:03:59.159672     1 net.cpp:382] cifar -> label
I0415 12:03:59.159723     1 data_transformer.cpp:25] Loading mean file from: examples/cifar10/mean.binaryproto
I0415 12:03:59.163115     1 data_layer.cpp:45] output data size: 100,3,32,32
I0415 12:03:59.163338     1 net.cpp:124] Setting up cifar
I0415 12:03:59.163358     1 net.cpp:131] Top shape: 100 3 32 32 (307200)
I0415 12:03:59.163373     1 net.cpp:131] Top shape: 100 (100)
I0415 12:03:59.163381     1 net.cpp:139] Memory required for data: 1229200
I0415 12:03:59.163398     1 layer_factory.hpp:77] Creating layer label_cifar_1_split
I0415 12:03:59.163655     1 net.cpp:86] Creating Layer label_cifar_1_split
I0415 12:03:59.163954     1 net.cpp:408] label_cifar_1_split <- label
I0415 12:03:59.163991     1 net.cpp:382] label_cifar_1_split -> label_cifar_1_split_0
I0415 12:03:59.164075     1 net.cpp:382] label_cifar_1_split -> label_cifar_1_split_1
I0415 12:03:59.164118     1 net.cpp:124] Setting up label_cifar_1_split
I0415 12:03:59.164167     1 net.cpp:131] Top shape: 100 (100)
I0415 12:03:59.164182     1 net.cpp:131] Top shape: 100 (100)
I0415 12:03:59.164191     1 net.cpp:139] Memory required for data: 1230000
I0415 12:03:59.164206     1 layer_factory.hpp:77] Creating layer ip11
I0415 12:03:59.164258     1 net.cpp:86] Creating Layer ip11
I0415 12:03:59.164288     1 net.cpp:408] ip11 <- data
I0415 12:03:59.164302     1 net.cpp:382] ip11 -> ip11
I0415 12:03:59.177983     1 net.cpp:124] Setting up ip11
I0415 12:03:59.178078     1 net.cpp:131] Top shape: 100 512 (51200)
I0415 12:03:59.178092     1 net.cpp:139] Memory required for data: 1434800
I0415 12:03:59.178161     1 layer_factory.hpp:77] Creating layer relu1
I0415 12:03:59.178184     1 net.cpp:86] Creating Layer relu1
I0415 12:03:59.178761     1 net.cpp:408] relu1 <- ip11
I0415 12:03:59.178786     1 net.cpp:369] relu1 -> ip11 (in-place)
I0415 12:03:59.178812     1 net.cpp:124] Setting up relu1
I0415 12:03:59.179167     1 net.cpp:131] Top shape: 100 512 (51200)
I0415 12:03:59.179208     1 net.cpp:139] Memory required for data: 1639600
I0415 12:03:59.179222     1 layer_factory.hpp:77] Creating layer ip14
I0415 12:03:59.179571     1 net.cpp:86] Creating Layer ip14
I0415 12:03:59.179603     1 net.cpp:408] ip14 <- ip11
I0415 12:03:59.179622     1 net.cpp:382] ip14 -> ip14
I0415 12:03:59.182795     1 net.cpp:124] Setting up ip14
I0415 12:03:59.182845     1 net.cpp:131] Top shape: 100 512 (51200)
I0415 12:03:59.182854     1 net.cpp:139] Memory required for data: 1844400
I0415 12:03:59.182873     1 layer_factory.hpp:77] Creating layer relu4
I0415 12:03:59.182888     1 net.cpp:86] Creating Layer relu4
I0415 12:03:59.182894     1 net.cpp:408] relu4 <- ip14
I0415 12:03:59.182904     1 net.cpp:369] relu4 -> ip14 (in-place)
I0415 12:03:59.182940     1 net.cpp:124] Setting up relu4
I0415 12:03:59.182948     1 net.cpp:131] Top shape: 100 512 (51200)
I0415 12:03:59.183744     1 net.cpp:139] Memory required for data: 2049200
I0415 12:03:59.183792     1 layer_factory.hpp:77] Creating layer ip15
I0415 12:03:59.183815     1 net.cpp:86] Creating Layer ip15
I0415 12:03:59.183825     1 net.cpp:408] ip15 <- ip14
I0415 12:03:59.184094     1 net.cpp:382] ip15 -> ip15
I0415 12:03:59.187819     1 net.cpp:124] Setting up ip15
I0415 12:03:59.187878     1 net.cpp:131] Top shape: 100 512 (51200)
I0415 12:03:59.187889     1 net.cpp:139] Memory required for data: 2254000
I0415 12:03:59.187916     1 layer_factory.hpp:77] Creating layer relu5
I0415 12:03:59.187933     1 net.cpp:86] Creating Layer relu5
I0415 12:03:59.188369     1 net.cpp:408] relu5 <- ip15
I0415 12:03:59.188550     1 net.cpp:369] relu5 -> ip15 (in-place)
I0415 12:03:59.188676     1 net.cpp:124] Setting up relu5
I0415 12:03:59.189230     1 net.cpp:131] Top shape: 100 512 (51200)
I0415 12:03:59.189501     1 net.cpp:139] Memory required for data: 2458800
I0415 12:03:59.189807     1 layer_factory.hpp:77] Creating layer ip5
I0415 12:03:59.190560     1 net.cpp:86] Creating Layer ip5
I0415 12:03:59.190608     1 net.cpp:408] ip5 <- ip15
I0415 12:03:59.190630     1 net.cpp:382] ip5 -> ip6
I0415 12:03:59.196679     1 net.cpp:124] Setting up ip5
I0415 12:03:59.196743     1 net.cpp:131] Top shape: 100 512 (51200)
I0415 12:03:59.196750     1 net.cpp:139] Memory required for data: 2663600
I0415 12:03:59.196764     1 layer_factory.hpp:77] Creating layer ip6_ip5_0_split
I0415 12:03:59.196776     1 net.cpp:86] Creating Layer ip6_ip5_0_split
I0415 12:03:59.196784     1 net.cpp:408] ip6_ip5_0_split <- ip6
I0415 12:03:59.196794     1 net.cpp:382] ip6_ip5_0_split -> ip6_ip5_0_split_0
I0415 12:03:59.196810     1 net.cpp:382] ip6_ip5_0_split -> ip6_ip5_0_split_1
I0415 12:03:59.197248     1 net.cpp:124] Setting up ip6_ip5_0_split
I0415 12:03:59.197262     1 net.cpp:131] Top shape: 100 512 (51200)
I0415 12:03:59.197268     1 net.cpp:131] Top shape: 100 512 (51200)
I0415 12:03:59.197367     1 net.cpp:139] Memory required for data: 3073200
I0415 12:03:59.197546     1 layer_factory.hpp:77] Creating layer accuracy
I0415 12:03:59.197559     1 net.cpp:86] Creating Layer accuracy
I0415 12:03:59.197566     1 net.cpp:408] accuracy <- ip6_ip5_0_split_0
I0415 12:03:59.197665     1 net.cpp:408] accuracy <- label_cifar_1_split_0
I0415 12:03:59.197815     1 net.cpp:382] accuracy -> accuracy
…
