…
I0415 14:26:49.229427     1 net.cpp:296] The NetState phase (0) differed from the phase (1) specified by a rule in layer cifar
I0415 14:26:49.229738     1 net.cpp:53] Initializing net from parameters: 
name: "CIFAR10_mlp"
state {
  phase: TRAIN
  level: 0
  stage: ""
}
layer {
  name: "cifar"
  type: "Data"
  top: "data"
  top: "label"
  include {
    phase: TRAIN
  }
  transform_param {
    mean_file: "examples/cifar10/mean.binaryproto"
  }
  data_param {
    source: "examples/cifar10/cifar10_train_lmdb"
    batch_size: 100
    backend: LMDB
  }
}
layer {
  name: "ip11"
  type: "InnerProduct"
  bottom: "data"
  top: "ip11"
  param {
    lr_mult: 1
  }
  param {
    lr_mult: 2
  }
  inner_product_param {
    num_output: 512
    weight_filler {
      type: "xavier"
    }
    bias_filler {
      type: "constant"
    }
  }
}
layer {
  name: "relu1"
  type: "ReLU"
  bottom: "ip11"
  top: "ip11"
}
layer {
  name: "ip14"
  type: "InnerProduct"
  bottom: "ip11"
  top: "ip14"
  param {
    lr_mult: 1
  }
  param {
    lr_mult: 2
  }
  inner_product_param {
    num_output: 512
    weight_filler {
      type: "xavier"
    }
    bias_filler {
      type: "constant"
    }
  }
}
layer {
  name: "relu4"
  type: "ReLU"
  bottom: "ip14"
  top: "ip14"
}
layer {
  name: "ip15"
  type: "InnerProduct"
  bottom: "ip14"
  top: "ip15"
  param {
    lr_mult: 1
  }
  param {
    lr_mult: 2
  }
  inner_product_param {
    num_output: 512
    weight_filler {
      type: "xavier"
    }
    bias_filler {
      type: "constant"
    }
  }
}
layer {
  name: "relu5"
  type: "ReLU"
  bottom: "ip15"
  top: "ip15"
}
layer {
  name: "encode1neuron"
  type: "Sigmoid"
  bottom: "ip15"
  top: "encode"
}
layer {
  name: "ip5"
  type: "InnerProduct"
  bottom: "encode"
  top: "ip6"
  param {
    lr_mult: 1
  }
  param {
    lr_mult: 2
  }
  inner_product_param {
    num_output: 512
    weight_filler {
      type: "gaussian"
      std: 0.1
    }
    bias_filler {
      type: "constant"
    }
  }
}
layer {
  name: "accuracy"
  type: "Accuracy"
  bottom: "ip6"
  bottom: "label"
  top: "accuracy"
}
layer {
  name: "loss"
  type: "SoftmaxWithLoss"
  bottom: "ip6"
  bottom: "label"
  top: "loss"
}
I0415 14:26:49.230033     1 layer_factory.hpp:77] Creating layer cifar
I0415 14:26:49.276203     1 db_lmdb.cpp:35] Opened lmdb examples/cifar10/cifar10_train_lmdb
I0415 14:26:49.280120     1 net.cpp:86] Creating Layer cifar
I0415 14:26:49.280237     1 net.cpp:382] cifar -> data
I0415 14:26:49.280555     1 net.cpp:382] cifar -> label
I0415 14:26:49.280633     1 data_transformer.cpp:25] Loading mean file from: examples/cifar10/mean.binaryproto
I0415 14:26:49.283568     1 data_layer.cpp:45] output data size: 100,3,32,32
I0415 14:26:49.284035     1 net.cpp:124] Setting up cifar
I0415 14:26:49.284117     1 net.cpp:131] Top shape: 100 3 32 32 (307200)
I0415 14:26:49.284149     1 net.cpp:131] Top shape: 100 (100)
I0415 14:26:49.284185     1 net.cpp:139] Memory required for data: 1229200
I0415 14:26:49.284215     1 layer_factory.hpp:77] Creating layer label_cifar_1_split
I0415 14:26:49.284251     1 net.cpp:86] Creating Layer label_cifar_1_split
I0415 14:26:49.284276     1 net.cpp:408] label_cifar_1_split <- label
I0415 14:26:49.284335     1 net.cpp:382] label_cifar_1_split -> label_cifar_1_split_0
I0415 14:26:49.284368     1 net.cpp:382] label_cifar_1_split -> label_cifar_1_split_1
I0415 14:26:49.284471     1 net.cpp:124] Setting up label_cifar_1_split
I0415 14:26:49.284536     1 net.cpp:131] Top shape: 100 (100)
I0415 14:26:49.284617     1 net.cpp:131] Top shape: 100 (100)
I0415 14:26:49.284669     1 net.cpp:139] Memory required for data: 1230000
I0415 14:26:49.284713     1 layer_factory.hpp:77] Creating layer ip11
I0415 14:26:49.284785     1 net.cpp:86] Creating Layer ip11
I0415 14:26:49.284829     1 net.cpp:408] ip11 <- data
I0415 14:26:49.284858     1 net.cpp:382] ip11 -> ip11
I0415 14:26:49.300344     1 net.cpp:124] Setting up ip11
I0415 14:26:49.300529     1 net.cpp:131] Top shape: 100 512 (51200)
I0415 14:26:49.300667     1 net.cpp:139] Memory required for data: 1434800
I0415 14:26:49.300796     1 layer_factory.hpp:77] Creating layer relu1
I0415 14:26:49.300844     1 net.cpp:86] Creating Layer relu1
I0415 14:26:49.300870     1 net.cpp:408] relu1 <- ip11
I0415 14:26:49.300894     1 net.cpp:369] relu1 -> ip11 (in-place)
I0415 14:26:49.300986     1 net.cpp:124] Setting up relu1
I0415 14:26:49.301035     1 net.cpp:131] Top shape: 100 512 (51200)
I0415 14:26:49.301117     1 net.cpp:139] Memory required for data: 1639600
I0415 14:26:49.301149     1 layer_factory.hpp:77] Creating layer ip14
I0415 14:26:49.301201     1 net.cpp:86] Creating Layer ip14
I0415 14:26:49.301241     1 net.cpp:408] ip14 <- ip11
I0415 14:26:49.301350     1 net.cpp:382] ip14 -> ip14
I0415 14:26:49.303973     1 net.cpp:124] Setting up ip14
I0415 14:26:49.304051     1 net.cpp:131] Top shape: 100 512 (51200)
I0415 14:26:49.304078     1 net.cpp:139] Memory required for data: 1844400
I0415 14:26:49.304291     1 layer_factory.hpp:77] Creating layer relu4
I0415 14:26:49.304378     1 net.cpp:86] Creating Layer relu4
I0415 14:26:49.304420     1 net.cpp:408] relu4 <- ip14
I0415 14:26:49.304491     1 net.cpp:369] relu4 -> ip14 (in-place)
I0415 14:26:49.304539     1 net.cpp:124] Setting up relu4
I0415 14:26:49.304651     1 net.cpp:131] Top shape: 100 512 (51200)
I0415 14:26:49.304749     1 net.cpp:139] Memory required for data: 2049200
I0415 14:26:49.304780     1 layer_factory.hpp:77] Creating layer ip15
I0415 14:26:49.304821     1 net.cpp:86] Creating Layer ip15
I0415 14:26:49.304846     1 net.cpp:408] ip15 <- ip14
I0415 14:26:49.304872     1 net.cpp:382] ip15 -> ip15
I0415 14:26:49.306910     1 net.cpp:124] Setting up ip15
I0415 14:26:49.306977     1 net.cpp:131] Top shape: 100 512 (51200)
I0415 14:26:49.307013     1 net.cpp:139] Memory required for data: 2254000
I0415 14:26:49.307158     1 layer_factory.hpp:77] Creating layer relu5
I0415 14:26:49.307274     1 net.cpp:86] Creating Layer relu5
I0415 14:26:49.307322     1 net.cpp:408] relu5 <- ip15
I0415 14:26:49.307368     1 net.cpp:369] relu5 -> ip15 (in-place)
I0415 14:26:49.307400     1 net.cpp:124] Setting up relu5
I0415 14:26:49.307438     1 net.cpp:131] Top shape: 100 512 (51200)
I0415 14:26:49.307538     1 net.cpp:139] Memory required for data: 2458800
I0415 14:26:49.307581     1 layer_factory.hpp:77] Creating layer encode1neuron
I0415 14:26:49.307667     1 net.cpp:86] Creating Layer encode1neuron
I0415 14:26:49.307718     1 net.cpp:408] encode1neuron <- ip15
I0415 14:26:49.307765     1 net.cpp:382] encode1neuron -> encode
I0415 14:26:49.307837     1 net.cpp:124] Setting up encode1neuron
I0415 14:26:49.307876     1 net.cpp:131] Top shape: 100 512 (51200)
I0415 14:26:49.307967     1 net.cpp:139] Memory required for data: 2663600
I0415 14:26:49.308024     1 layer_factory.hpp:77] Creating layer ip5
I0415 14:26:49.308109     1 net.cpp:86] Creating Layer ip5
I0415 14:26:49.308143     1 net.cpp:408] ip5 <- encode
I0415 14:26:49.308171     1 net.cpp:382] ip5 -> ip6
I0415 14:26:49.311910     1 net.cpp:124] Setting up ip5
I0415 14:26:49.311995     1 net.cpp:131] Top shape: 100 512 (51200)
I0415 14:26:49.312021     1 net.cpp:139] Memory required for data: 2868400
I0415 14:26:49.312050     1 layer_factory.hpp:77] Creating layer ip6_ip5_0_split
I0415 14:26:49.312181     1 net.cpp:86] Creating Layer ip6_ip5_0_split
I0415 14:26:49.312218     1 net.cpp:408] ip6_ip5_0_split <- ip6
I0415 14:26:49.312305     1 net.cpp:382] ip6_ip5_0_split -> ip6_ip5_0_split_0
I0415 14:26:49.312355     1 net.cpp:382] ip6_ip5_0_split -> ip6_ip5_0_split_1
I0415 14:26:49.312388     1 net.cpp:124] Setting up ip6_ip5_0_split
I0415 14:26:49.312420     1 net.cpp:131] Top shape: 100 512 (51200)
I0415 14:26:49.312451     1 net.cpp:131] Top shape: 100 512 (51200)
I0415 14:26:49.312479     1 net.cpp:139] Memory required for data: 3278000
I0415 14:26:49.312505     1 layer_factory.hpp:77] Creating layer accuracy
I0415 14:26:49.312548     1 net.cpp:86] Creating Layer accuracy
I0415 14:26:49.312652     1 net.cpp:408] accuracy <- ip6_ip5_0_split_0
I0415 14:26:49.312700     1 net.cpp:408] accuracy <- label_cifar_1_split_0
I0415 14:26:49.312789     1 net.cpp:382] accuracy -> accuracy
…
