…
I0415 15:33:24.382267     1 net.cpp:296] The NetState phase (0) differed from the phase (1) specified by a rule in layer cifar
I0415 15:33:24.382657     1 net.cpp:53] Initializing net from parameters: 
name: "CIFAR10_mlp"
state {
  phase: TRAIN
  level: 0
  stage: ""
}
layer {
  name: "cifar"
  type: "Data"
  top: "data"
  top: "label"
  include {
    phase: TRAIN
  }
  transform_param {
    mean_file: "examples/cifar10/mean.binaryproto"
  }
  data_param {
    source: "examples/cifar10/cifar10_train_lmdb"
    batch_size: 100
    backend: LMDB
  }
}
layer {
  name: "ip11"
  type: "InnerProduct"
  bottom: "data"
  top: "ip11"
  param {
    lr_mult: 1
  }
  param {
    lr_mult: 2
  }
  inner_product_param {
    num_output: 512
    weight_filler {
      type: "xavier"
    }
    bias_filler {
      type: "constant"
    }
  }
}
layer {
  name: "relu1"
  type: "ReLU"
  bottom: "ip11"
  top: "ip11"
}
layer {
  name: "ip14"
  type: "InnerProduct"
  bottom: "ip11"
  top: "ip14"
  param {
    lr_mult: 1
  }
  param {
    lr_mult: 2
  }
  inner_product_param {
    num_output: 512
    weight_filler {
      type: "xavier"
    }
    bias_filler {
      type: "constant"
    }
  }
}
layer {
  name: "relu4"
  type: "ReLU"
  bottom: "ip14"
  top: "ip14"
}
layer {
  name: "ip15"
  type: "InnerProduct"
  bottom: "ip14"
  top: "ip15"
  param {
    lr_mult: 1
  }
  param {
    lr_mult: 2
  }
  inner_product_param {
    num_output: 512
    weight_filler {
      type: "xavier"
    }
    bias_filler {
      type: "constant"
    }
  }
}
layer {
  name: "relu5"
  type: "ReLU"
  bottom: "ip15"
  top: "ip15"
}
layer {
  name: "ip16"
  type: "InnerProduct"
  bottom: "ip15"
  top: "ip16"
  param {
    lr_mult: 1
  }
  param {
    lr_mult: 2
  }
  inner_product_param {
    num_output: 512
    weight_filler {
      type: "xavier"
    }
    bias_filler {
      type: "constant"
    }
  }
}
layer {
  name: "relu6"
  type: "ReLU"
  bottom: "ip16"
  top: "ip16"
}
layer {
  name: "encode1neuron"
  type: "Sigmoid"
  bottom: "ip16"
  top: "encode"
}
layer {
  name: "ip5"
  type: "InnerProduct"
  bottom: "encode"
  top: "ip6"
  param {
    lr_mult: 1
  }
  param {
    lr_mult: 2
  }
  inner_product_param {
    num_output: 512
    weight_filler {
      type: "gaussian"
      std: 0.1
    }
    bias_filler {
      type: "constant"
    }
  }
}
layer {
  name: "accuracy"
  type: "Accuracy"
  bottom: "ip6"
  bottom: "label"
  top: "accuracy"
}
layer {
  name: "loss"
  type: "SoftmaxWithLoss"
  bottom: "ip6"
  bottom: "label"
  top: "loss"
}
I0415 15:33:24.382777     1 layer_factory.hpp:77] Creating layer cifar
I0415 15:33:24.421656     1 db_lmdb.cpp:35] Opened lmdb examples/cifar10/cifar10_train_lmdb
I0415 15:33:24.423499     1 net.cpp:86] Creating Layer cifar
I0415 15:33:24.423594     1 net.cpp:382] cifar -> data
I0415 15:33:24.423638     1 net.cpp:382] cifar -> label
I0415 15:33:24.423707     1 data_transformer.cpp:25] Loading mean file from: examples/cifar10/mean.binaryproto
I0415 15:33:24.426343     1 data_layer.cpp:45] output data size: 100,3,32,32
I0415 15:33:24.426887     1 net.cpp:124] Setting up cifar
I0415 15:33:24.426910     1 net.cpp:131] Top shape: 100 3 32 32 (307200)
I0415 15:33:24.426944     1 net.cpp:131] Top shape: 100 (100)
I0415 15:33:24.426949     1 net.cpp:139] Memory required for data: 1229200
I0415 15:33:24.427003     1 layer_factory.hpp:77] Creating layer label_cifar_1_split
I0415 15:33:24.427024     1 net.cpp:86] Creating Layer label_cifar_1_split
I0415 15:33:24.427036     1 net.cpp:408] label_cifar_1_split <- label
I0415 15:33:24.427052     1 net.cpp:382] label_cifar_1_split -> label_cifar_1_split_0
I0415 15:33:24.427065     1 net.cpp:382] label_cifar_1_split -> label_cifar_1_split_1
I0415 15:33:24.427078     1 net.cpp:124] Setting up label_cifar_1_split
I0415 15:33:24.427124     1 net.cpp:131] Top shape: 100 (100)
I0415 15:33:24.427131     1 net.cpp:131] Top shape: 100 (100)
I0415 15:33:24.427137     1 net.cpp:139] Memory required for data: 1230000
I0415 15:33:24.427145     1 layer_factory.hpp:77] Creating layer ip11
I0415 15:33:24.427158     1 net.cpp:86] Creating Layer ip11
I0415 15:33:24.427165     1 net.cpp:408] ip11 <- data
I0415 15:33:24.427172     1 net.cpp:382] ip11 -> ip11
I0415 15:33:24.444785     1 net.cpp:124] Setting up ip11
I0415 15:33:24.444875     1 net.cpp:131] Top shape: 100 512 (51200)
I0415 15:33:24.444881     1 net.cpp:139] Memory required for data: 1434800
I0415 15:33:24.444914     1 layer_factory.hpp:77] Creating layer relu1
I0415 15:33:24.444928     1 net.cpp:86] Creating Layer relu1
I0415 15:33:24.444936     1 net.cpp:408] relu1 <- ip11
I0415 15:33:24.444944     1 net.cpp:369] relu1 -> ip11 (in-place)
I0415 15:33:24.444957     1 net.cpp:124] Setting up relu1
I0415 15:33:24.445034     1 net.cpp:131] Top shape: 100 512 (51200)
I0415 15:33:24.445044     1 net.cpp:139] Memory required for data: 1639600
I0415 15:33:24.445050     1 layer_factory.hpp:77] Creating layer ip14
I0415 15:33:24.445062     1 net.cpp:86] Creating Layer ip14
I0415 15:33:24.445068     1 net.cpp:408] ip14 <- ip11
I0415 15:33:24.445077     1 net.cpp:382] ip14 -> ip14
I0415 15:33:24.449075     1 net.cpp:124] Setting up ip14
I0415 15:33:24.449180     1 net.cpp:131] Top shape: 100 512 (51200)
I0415 15:33:24.449195     1 net.cpp:139] Memory required for data: 1844400
I0415 15:33:24.449221     1 layer_factory.hpp:77] Creating layer relu4
I0415 15:33:24.449300     1 net.cpp:86] Creating Layer relu4
I0415 15:33:24.449316     1 net.cpp:408] relu4 <- ip14
I0415 15:33:24.449333     1 net.cpp:369] relu4 -> ip14 (in-place)
I0415 15:33:24.449352     1 net.cpp:124] Setting up relu4
I0415 15:33:24.449363     1 net.cpp:131] Top shape: 100 512 (51200)
I0415 15:33:24.449371     1 net.cpp:139] Memory required for data: 2049200
I0415 15:33:24.449453     1 layer_factory.hpp:77] Creating layer ip15
I0415 15:33:24.449473     1 net.cpp:86] Creating Layer ip15
I0415 15:33:24.449529     1 net.cpp:408] ip15 <- ip14
I0415 15:33:24.449548     1 net.cpp:382] ip15 -> ip15
I0415 15:33:24.452888     1 net.cpp:124] Setting up ip15
I0415 15:33:24.452950     1 net.cpp:131] Top shape: 100 512 (51200)
I0415 15:33:24.452962     1 net.cpp:139] Memory required for data: 2254000
I0415 15:33:24.452988     1 layer_factory.hpp:77] Creating layer relu5
I0415 15:33:24.453029     1 net.cpp:86] Creating Layer relu5
I0415 15:33:24.453043     1 net.cpp:408] relu5 <- ip15
I0415 15:33:24.453059     1 net.cpp:369] relu5 -> ip15 (in-place)
I0415 15:33:24.453078     1 net.cpp:124] Setting up relu5
I0415 15:33:24.453088     1 net.cpp:131] Top shape: 100 512 (51200)
I0415 15:33:24.453097     1 net.cpp:139] Memory required for data: 2458800
I0415 15:33:24.453109     1 layer_factory.hpp:77] Creating layer ip16
I0415 15:33:24.453127     1 net.cpp:86] Creating Layer ip16
I0415 15:33:24.453158     1 net.cpp:408] ip16 <- ip15
I0415 15:33:24.453176     1 net.cpp:382] ip16 -> ip16
I0415 15:33:24.455610     1 net.cpp:124] Setting up ip16
I0415 15:33:24.455682     1 net.cpp:131] Top shape: 100 512 (51200)
I0415 15:33:24.455689     1 net.cpp:139] Memory required for data: 2663600
I0415 15:33:24.455703     1 layer_factory.hpp:77] Creating layer relu6
I0415 15:33:24.455715     1 net.cpp:86] Creating Layer relu6
I0415 15:33:24.455739     1 net.cpp:408] relu6 <- ip16
I0415 15:33:24.455801     1 net.cpp:369] relu6 -> ip16 (in-place)
I0415 15:33:24.455819     1 net.cpp:124] Setting up relu6
I0415 15:33:24.455842     1 net.cpp:131] Top shape: 100 512 (51200)
I0415 15:33:24.455849     1 net.cpp:139] Memory required for data: 2868400
I0415 15:33:24.455857     1 layer_factory.hpp:77] Creating layer encode1neuron
I0415 15:33:24.455880     1 net.cpp:86] Creating Layer encode1neuron
I0415 15:33:24.455889     1 net.cpp:408] encode1neuron <- ip16
I0415 15:33:24.455899     1 net.cpp:382] encode1neuron -> encode
I0415 15:33:24.455938     1 net.cpp:124] Setting up encode1neuron
I0415 15:33:24.455953     1 net.cpp:131] Top shape: 100 512 (51200)
I0415 15:33:24.455960     1 net.cpp:139] Memory required for data: 3073200
I0415 15:33:24.455981     1 layer_factory.hpp:77] Creating layer ip5
I0415 15:33:24.455996     1 net.cpp:86] Creating Layer ip5
I0415 15:33:24.456017     1 net.cpp:408] ip5 <- encode
I0415 15:33:24.456032     1 net.cpp:382] ip5 -> ip6
I0415 15:33:24.460256     1 net.cpp:124] Setting up ip5
I0415 15:33:24.460319     1 net.cpp:131] Top shape: 100 512 (51200)
I0415 15:33:24.460325     1 net.cpp:139] Memory required for data: 3278000
I0415 15:33:24.460350     1 layer_factory.hpp:77] Creating layer ip6_ip5_0_split
I0415 15:33:24.460371     1 net.cpp:86] Creating Layer ip6_ip5_0_split
I0415 15:33:24.460403     1 net.cpp:408] ip6_ip5_0_split <- ip6
I0415 15:33:24.460427     1 net.cpp:382] ip6_ip5_0_split -> ip6_ip5_0_split_0
I0415 15:33:24.460469     1 net.cpp:382] ip6_ip5_0_split -> ip6_ip5_0_split_1
I0415 15:33:24.460489     1 net.cpp:124] Setting up ip6_ip5_0_split
I0415 15:33:24.460505     1 net.cpp:131] Top shape: 100 512 (51200)
I0415 15:33:24.460515     1 net.cpp:131] Top shape: 100 512 (51200)
I0415 15:33:24.460525     1 net.cpp:139] Memory required for data: 3687600
I0415 15:33:24.460533     1 layer_factory.hpp:77] Creating layer accuracy
I0415 15:33:24.460546     1 net.cpp:86] Creating Layer accuracy
I0415 15:33:24.460556     1 net.cpp:408] accuracy <- ip6_ip5_0_split_0
I0415 15:33:24.460566     1 net.cpp:408] accuracy <- label_cifar_1_split_0
I0415 15:33:24.460676     1 net.cpp:382] accuracy -> accuracy
…
