…
I0415 12:49:17.581918     1 net.cpp:296] The NetState phase (0) differed from the phase (1) specified by a rule in layer cifar
I0415 12:49:17.582463     1 net.cpp:53] Initializing net from parameters: 
name: "CIFAR10_mlp"
state {
  phase: TRAIN
  level: 0
  stage: ""
}
layer {
  name: "cifar"
  type: "Data"
  top: "data"
  top: "label"
  include {
    phase: TRAIN
  }
  transform_param {
    mean_file: "examples/cifar10/mean.binaryproto"
  }
  data_param {
    source: "examples/cifar10/cifar10_train_lmdb"
    batch_size: 100
    backend: LMDB
  }
}
layer {
  name: "ip11"
  type: "InnerProduct"
  bottom: "data"
  top: "ip11"
  param {
    lr_mult: 1
  }
  param {
    lr_mult: 2
  }
  inner_product_param {
    num_output: 512
    weight_filler {
      type: "xavier"
    }
    bias_filler {
      type: "constant"
    }
  }
}
layer {
  name: "relu1"
  type: "ReLU"
  bottom: "ip11"
  top: "ip11"
}
layer {
  name: "ip14"
  type: "InnerProduct"
  bottom: "ip11"
  top: "ip14"
  param {
    lr_mult: 1
  }
  param {
    lr_mult: 2
  }
  inner_product_param {
    num_output: 512
    weight_filler {
      type: "xavier"
    }
    bias_filler {
      type: "constant"
    }
  }
}
layer {
  name: "relu4"
  type: "ReLU"
  bottom: "ip14"
  top: "ip14"
}
layer {
  name: "ip15"
  type: "InnerProduct"
  bottom: "ip14"
  top: "ip15"
  param {
    lr_mult: 1
  }
  param {
    lr_mult: 2
  }
  inner_product_param {
    num_output: 512
    weight_filler {
      type: "xavier"
    }
    bias_filler {
      type: "constant"
    }
  }
}
layer {
  name: "relu5"
  type: "ReLU"
  bottom: "ip15"
  top: "ip15"
}
layer {
  name: "ip5"
  type: "InnerProduct"
  bottom: "ip15"
  top: "ip6"
  param {
    lr_mult: 1
  }
  param {
    lr_mult: 2
  }
  inner_product_param {
    num_output: 512
    weight_filler {
      type: "gaussian"
      std: 0.1
    }
    bias_filler {
      type: "constant"
    }
  }
}
layer {
  name: "accuracy"
  type: "Accuracy"
  bottom: "ip6"
  bottom: "label"
  top: "accuracy"
}
layer {
  name: "loss"
  type: "SoftmaxWithLoss"
  bottom: "ip6"
  bottom: "label"
  top: "loss"
}
I0415 12:49:17.583557     1 layer_factory.hpp:77] Creating layer cifar
I0415 12:49:17.621106     1 db_lmdb.cpp:35] Opened lmdb examples/cifar10/cifar10_train_lmdb
I0415 12:49:17.624913     1 net.cpp:86] Creating Layer cifar
I0415 12:49:17.625038     1 net.cpp:382] cifar -> data
I0415 12:49:17.625437     1 net.cpp:382] cifar -> label
I0415 12:49:17.625710     1 data_transformer.cpp:25] Loading mean file from: examples/cifar10/mean.binaryproto
I0415 12:49:17.628953     1 data_layer.cpp:45] output data size: 100,3,32,32
I0415 12:49:17.629534     1 net.cpp:124] Setting up cifar
I0415 12:49:17.629571     1 net.cpp:131] Top shape: 100 3 32 32 (307200)
I0415 12:49:17.629585     1 net.cpp:131] Top shape: 100 (100)
I0415 12:49:17.629590     1 net.cpp:139] Memory required for data: 1229200
I0415 12:49:17.629603     1 layer_factory.hpp:77] Creating layer label_cifar_1_split
I0415 12:49:17.629623     1 net.cpp:86] Creating Layer label_cifar_1_split
I0415 12:49:17.629633     1 net.cpp:408] label_cifar_1_split <- label
I0415 12:49:17.629703     1 net.cpp:382] label_cifar_1_split -> label_cifar_1_split_0
I0415 12:49:17.629750     1 net.cpp:382] label_cifar_1_split -> label_cifar_1_split_1
I0415 12:49:17.630242     1 net.cpp:124] Setting up label_cifar_1_split
I0415 12:49:17.630254     1 net.cpp:131] Top shape: 100 (100)
I0415 12:49:17.630538     1 net.cpp:131] Top shape: 100 (100)
I0415 12:49:17.630568     1 net.cpp:139] Memory required for data: 1230000
I0415 12:49:17.630578     1 layer_factory.hpp:77] Creating layer ip11
I0415 12:49:17.631469     1 net.cpp:86] Creating Layer ip11
I0415 12:49:17.631546     1 net.cpp:408] ip11 <- data
I0415 12:49:17.631567     1 net.cpp:382] ip11 -> ip11
I0415 12:49:17.647573     1 net.cpp:124] Setting up ip11
I0415 12:49:17.647641     1 net.cpp:131] Top shape: 100 512 (51200)
I0415 12:49:17.647653     1 net.cpp:139] Memory required for data: 1434800
I0415 12:49:17.647696     1 layer_factory.hpp:77] Creating layer relu1
I0415 12:49:17.648270     1 net.cpp:86] Creating Layer relu1
I0415 12:49:17.648283     1 net.cpp:408] relu1 <- ip11
I0415 12:49:17.648406     1 net.cpp:369] relu1 -> ip11 (in-place)
I0415 12:49:17.648576     1 net.cpp:124] Setting up relu1
I0415 12:49:17.648593     1 net.cpp:131] Top shape: 100 512 (51200)
I0415 12:49:17.648603     1 net.cpp:139] Memory required for data: 1639600
I0415 12:49:17.648613     1 layer_factory.hpp:77] Creating layer ip14
I0415 12:49:17.648931     1 net.cpp:86] Creating Layer ip14
I0415 12:49:17.648939     1 net.cpp:408] ip14 <- ip11
I0415 12:49:17.648948     1 net.cpp:382] ip14 -> ip14
I0415 12:49:17.651460     1 net.cpp:124] Setting up ip14
I0415 12:49:17.651505     1 net.cpp:131] Top shape: 100 512 (51200)
I0415 12:49:17.651512     1 net.cpp:139] Memory required for data: 1844400
I0415 12:49:17.651527     1 layer_factory.hpp:77] Creating layer relu4
I0415 12:49:17.651538     1 net.cpp:86] Creating Layer relu4
I0415 12:49:17.651545     1 net.cpp:408] relu4 <- ip14
I0415 12:49:17.651865     1 net.cpp:369] relu4 -> ip14 (in-place)
I0415 12:49:17.651901     1 net.cpp:124] Setting up relu4
I0415 12:49:17.651911     1 net.cpp:131] Top shape: 100 512 (51200)
I0415 12:49:17.651916     1 net.cpp:139] Memory required for data: 2049200
I0415 12:49:17.651921     1 layer_factory.hpp:77] Creating layer ip15
I0415 12:49:17.652042     1 net.cpp:86] Creating Layer ip15
I0415 12:49:17.652205     1 net.cpp:408] ip15 <- ip14
I0415 12:49:17.652226     1 net.cpp:382] ip15 -> ip15
I0415 12:49:17.654284     1 net.cpp:124] Setting up ip15
I0415 12:49:17.654325     1 net.cpp:131] Top shape: 100 512 (51200)
I0415 12:49:17.654340     1 net.cpp:139] Memory required for data: 2254000
I0415 12:49:17.654355     1 layer_factory.hpp:77] Creating layer relu5
I0415 12:49:17.654364     1 net.cpp:86] Creating Layer relu5
I0415 12:49:17.654371     1 net.cpp:408] relu5 <- ip15
I0415 12:49:17.654378     1 net.cpp:369] relu5 -> ip15 (in-place)
I0415 12:49:17.654387     1 net.cpp:124] Setting up relu5
I0415 12:49:17.654394     1 net.cpp:131] Top shape: 100 512 (51200)
I0415 12:49:17.654398     1 net.cpp:139] Memory required for data: 2458800
I0415 12:49:17.654403     1 layer_factory.hpp:77] Creating layer ip5
I0415 12:49:17.654825     1 net.cpp:86] Creating Layer ip5
I0415 12:49:17.654856     1 net.cpp:408] ip5 <- ip15
I0415 12:49:17.654867     1 net.cpp:382] ip5 -> ip6
I0415 12:49:17.658313     1 net.cpp:124] Setting up ip5
I0415 12:49:17.658365     1 net.cpp:131] Top shape: 100 512 (51200)
I0415 12:49:17.658377     1 net.cpp:139] Memory required for data: 2663600
I0415 12:49:17.658394     1 layer_factory.hpp:77] Creating layer ip6_ip5_0_split
I0415 12:49:17.658409     1 net.cpp:86] Creating Layer ip6_ip5_0_split
I0415 12:49:17.658767     1 net.cpp:408] ip6_ip5_0_split <- ip6
I0415 12:49:17.658782     1 net.cpp:382] ip6_ip5_0_split -> ip6_ip5_0_split_0
I0415 12:49:17.659056     1 net.cpp:382] ip6_ip5_0_split -> ip6_ip5_0_split_1
I0415 12:49:17.659097     1 net.cpp:124] Setting up ip6_ip5_0_split
I0415 12:49:17.659108     1 net.cpp:131] Top shape: 100 512 (51200)
I0415 12:49:17.659116     1 net.cpp:131] Top shape: 100 512 (51200)
I0415 12:49:17.659119     1 net.cpp:139] Memory required for data: 3073200
I0415 12:49:17.659425     1 layer_factory.hpp:77] Creating layer accuracy
I0415 12:49:17.659440     1 net.cpp:86] Creating Layer accuracy
I0415 12:49:17.659446     1 net.cpp:408] accuracy <- ip6_ip5_0_split_0
I0415 12:49:17.659453     1 net.cpp:408] accuracy <- label_cifar_1_split_0
I0415 12:49:17.659575     1 net.cpp:382] accuracy -> accuracy
…
