…
I0415 16:17:56.775106     1 net.cpp:296] The NetState phase (0) differed from the phase (1) specified by a rule in layer cifar
I0415 16:17:56.775568     1 net.cpp:53] Initializing net from parameters: 
name: "CIFAR10_mlp"
state {
  phase: TRAIN
  level: 0
  stage: ""
}
layer {
  name: "cifar"
  type: "Data"
  top: "data"
  top: "label"
  include {
    phase: TRAIN
  }
  transform_param {
    mean_file: "examples/cifar10/mean.binaryproto"
  }
  data_param {
    source: "examples/cifar10/cifar10_train_lmdb"
    batch_size: 100
    backend: LMDB
  }
}
layer {
  name: "ip11"
  type: "InnerProduct"
  bottom: "data"
  top: "ip11"
  param {
    lr_mult: 1
  }
  param {
    lr_mult: 2
  }
  inner_product_param {
    num_output: 512
    weight_filler {
      type: "xavier"
    }
    bias_filler {
      type: "constant"
    }
  }
}
layer {
  name: "relu1"
  type: "ReLU"
  bottom: "ip11"
  top: "ip11"
}
layer {
  name: "ip14"
  type: "InnerProduct"
  bottom: "ip11"
  top: "ip14"
  param {
    lr_mult: 1
  }
  param {
    lr_mult: 2
  }
  inner_product_param {
    num_output: 512
    weight_filler {
      type: "xavier"
    }
    bias_filler {
      type: "constant"
    }
  }
}
layer {
  name: "relu4"
  type: "ReLU"
  bottom: "ip14"
  top: "ip14"
}
layer {
  name: "ip15"
  type: "InnerProduct"
  bottom: "ip14"
  top: "ip15"
  param {
    lr_mult: 1
  }
  param {
    lr_mult: 2
  }
  inner_product_param {
    num_output: 512
    weight_filler {
      type: "xavier"
    }
    bias_filler {
      type: "constant"
    }
  }
}
layer {
  name: "relu5"
  type: "ReLU"
  bottom: "ip15"
  top: "ip15"
}
layer {
  name: "ip16"
  type: "InnerProduct"
  bottom: "ip15"
  top: "ip16"
  param {
    lr_mult: 1
  }
  param {
    lr_mult: 2
  }
  inner_product_param {
    num_output: 512
    weight_filler {
      type: "xavier"
    }
    bias_filler {
      type: "constant"
    }
  }
}
layer {
  name: "relu6"
  type: "ReLU"
  bottom: "ip16"
  top: "ip16"
}
layer {
  name: "ip17"
  type: "InnerProduct"
  bottom: "ip16"
  top: "ip17"
  param {
    lr_mult: 1
  }
  param {
    lr_mult: 2
  }
  inner_product_param {
    num_output: 512
    weight_filler {
      type: "xavier"
    }
    bias_filler {
      type: "constant"
    }
  }
}
layer {
  name: "relu7"
  type: "ReLU"
  bottom: "ip17"
  top: "ip17"
}
layer {
  name: "encode1neuron"
  type: "Sigmoid"
  bottom: "ip17"
  top: "encode"
}
layer {
  name: "ip5"
  type: "InnerProduct"
  bottom: "encode"
  top: "ip6"
  param {
    lr_mult: 1
  }
  param {
    lr_mult: 2
  }
  inner_product_param {
    num_output: 512
    weight_filler {
      type: "gaussian"
      std: 0.1
    }
    bias_filler {
      type: "constant"
    }
  }
}
layer {
  name: "accuracy"
  type: "Accuracy"
  bottom: "ip6"
  bottom: "label"
  top: "accuracy"
}
layer {
  name: "loss"
  type: "SoftmaxWithLoss"
  bottom: "ip6"
  bottom: "label"
  top: "loss"
}
I0415 16:17:56.776921     1 layer_factory.hpp:77] Creating layer cifar
I0415 16:17:56.816329     1 db_lmdb.cpp:35] Opened lmdb examples/cifar10/cifar10_train_lmdb
I0415 16:17:56.818270     1 net.cpp:86] Creating Layer cifar
I0415 16:17:56.818414     1 net.cpp:382] cifar -> data
I0415 16:17:56.818960     1 net.cpp:382] cifar -> label
I0415 16:17:56.819121     1 data_transformer.cpp:25] Loading mean file from: examples/cifar10/mean.binaryproto
I0415 16:17:56.828085     1 data_layer.cpp:45] output data size: 100,3,32,32
I0415 16:17:56.828634     1 net.cpp:124] Setting up cifar
I0415 16:17:56.828687     1 net.cpp:131] Top shape: 100 3 32 32 (307200)
I0415 16:17:56.828708     1 net.cpp:131] Top shape: 100 (100)
I0415 16:17:56.828723     1 net.cpp:139] Memory required for data: 1229200
I0415 16:17:56.828747     1 layer_factory.hpp:77] Creating layer label_cifar_1_split
I0415 16:17:56.828779     1 net.cpp:86] Creating Layer label_cifar_1_split
I0415 16:17:56.828799     1 net.cpp:408] label_cifar_1_split <- label
I0415 16:17:56.828881     1 net.cpp:382] label_cifar_1_split -> label_cifar_1_split_0
I0415 16:17:56.828932     1 net.cpp:382] label_cifar_1_split -> label_cifar_1_split_1
I0415 16:17:56.828971     1 net.cpp:124] Setting up label_cifar_1_split
I0415 16:17:56.829035     1 net.cpp:131] Top shape: 100 (100)
I0415 16:17:56.829284     1 net.cpp:131] Top shape: 100 (100)
I0415 16:17:56.829335     1 net.cpp:139] Memory required for data: 1230000
I0415 16:17:56.829856     1 layer_factory.hpp:77] Creating layer ip11
I0415 16:17:56.829979     1 net.cpp:86] Creating Layer ip11
I0415 16:17:56.830001     1 net.cpp:408] ip11 <- data
I0415 16:17:56.830024     1 net.cpp:382] ip11 -> ip11
I0415 16:17:56.844727     1 net.cpp:124] Setting up ip11
I0415 16:17:56.844832     1 net.cpp:131] Top shape: 100 512 (51200)
I0415 16:17:56.844851     1 net.cpp:139] Memory required for data: 1434800
I0415 16:17:56.844893     1 layer_factory.hpp:77] Creating layer relu1
I0415 16:17:56.845196     1 net.cpp:86] Creating Layer relu1
I0415 16:17:56.845252     1 net.cpp:408] relu1 <- ip11
I0415 16:17:56.845464     1 net.cpp:369] relu1 -> ip11 (in-place)
I0415 16:17:56.845515     1 net.cpp:124] Setting up relu1
I0415 16:17:56.845628     1 net.cpp:131] Top shape: 100 512 (51200)
I0415 16:17:56.845751     1 net.cpp:139] Memory required for data: 1639600
I0415 16:17:56.845859     1 layer_factory.hpp:77] Creating layer ip14
I0415 16:17:56.846024     1 net.cpp:86] Creating Layer ip14
I0415 16:17:56.846062     1 net.cpp:408] ip14 <- ip11
I0415 16:17:56.846278     1 net.cpp:382] ip14 -> ip14
I0415 16:17:56.848290     1 net.cpp:124] Setting up ip14
I0415 16:17:56.848356     1 net.cpp:131] Top shape: 100 512 (51200)
I0415 16:17:56.848373     1 net.cpp:139] Memory required for data: 1844400
I0415 16:17:56.848397     1 layer_factory.hpp:77] Creating layer relu4
I0415 16:17:56.848417     1 net.cpp:86] Creating Layer relu4
I0415 16:17:56.848538     1 net.cpp:408] relu4 <- ip14
I0415 16:17:56.848709     1 net.cpp:369] relu4 -> ip14 (in-place)
I0415 16:17:56.848832     1 net.cpp:124] Setting up relu4
I0415 16:17:56.848965     1 net.cpp:131] Top shape: 100 512 (51200)
I0415 16:17:56.849081     1 net.cpp:139] Memory required for data: 2049200
I0415 16:17:56.849217     1 layer_factory.hpp:77] Creating layer ip15
I0415 16:17:56.849242     1 net.cpp:86] Creating Layer ip15
I0415 16:17:56.849359     1 net.cpp:408] ip15 <- ip14
I0415 16:17:56.849506     1 net.cpp:382] ip15 -> ip15
I0415 16:17:56.851601     1 net.cpp:124] Setting up ip15
I0415 16:17:56.851678     1 net.cpp:131] Top shape: 100 512 (51200)
I0415 16:17:56.851696     1 net.cpp:139] Memory required for data: 2254000
I0415 16:17:56.851722     1 layer_factory.hpp:77] Creating layer relu5
I0415 16:17:56.851960     1 net.cpp:86] Creating Layer relu5
I0415 16:17:56.852017     1 net.cpp:408] relu5 <- ip15
I0415 16:17:56.852130     1 net.cpp:369] relu5 -> ip15 (in-place)
I0415 16:17:56.852267     1 net.cpp:124] Setting up relu5
I0415 16:17:56.852460     1 net.cpp:131] Top shape: 100 512 (51200)
I0415 16:17:56.852574     1 net.cpp:139] Memory required for data: 2458800
I0415 16:17:56.852713     1 layer_factory.hpp:77] Creating layer ip16
I0415 16:17:56.852763     1 net.cpp:86] Creating Layer ip16
I0415 16:17:56.852888     1 net.cpp:408] ip16 <- ip15
I0415 16:17:56.853041     1 net.cpp:382] ip16 -> ip16
I0415 16:17:56.855031     1 net.cpp:124] Setting up ip16
I0415 16:17:56.855095     1 net.cpp:131] Top shape: 100 512 (51200)
I0415 16:17:56.855113     1 net.cpp:139] Memory required for data: 2663600
I0415 16:17:56.855134     1 layer_factory.hpp:77] Creating layer relu6
I0415 16:17:56.855152     1 net.cpp:86] Creating Layer relu6
I0415 16:17:56.855273     1 net.cpp:408] relu6 <- ip16
I0415 16:17:56.855435     1 net.cpp:369] relu6 -> ip16 (in-place)
I0415 16:17:56.855546     1 net.cpp:124] Setting up relu6
I0415 16:17:56.855674     1 net.cpp:131] Top shape: 100 512 (51200)
I0415 16:17:56.855713     1 net.cpp:139] Memory required for data: 2868400
I0415 16:17:56.855829     1 layer_factory.hpp:77] Creating layer ip17
I0415 16:17:56.855979     1 net.cpp:86] Creating Layer ip17
I0415 16:17:56.856017     1 net.cpp:408] ip17 <- ip16
I0415 16:17:56.856133     1 net.cpp:382] ip17 -> ip17
I0415 16:17:56.858239     1 net.cpp:124] Setting up ip17
I0415 16:17:56.858304     1 net.cpp:131] Top shape: 100 512 (51200)
I0415 16:17:56.858322     1 net.cpp:139] Memory required for data: 3073200
I0415 16:17:56.858345     1 layer_factory.hpp:77] Creating layer relu7
I0415 16:17:56.858369     1 net.cpp:86] Creating Layer relu7
I0415 16:17:56.858641     1 net.cpp:408] relu7 <- ip17
I0415 16:17:56.858683     1 net.cpp:369] relu7 -> ip17 (in-place)
I0415 16:17:56.858837     1 net.cpp:124] Setting up relu7
I0415 16:17:56.858968     1 net.cpp:131] Top shape: 100 512 (51200)
I0415 16:17:56.858983     1 net.cpp:139] Memory required for data: 3278000
I0415 16:17:56.859191     1 layer_factory.hpp:77] Creating layer encode1neuron
I0415 16:17:56.859328     1 net.cpp:86] Creating Layer encode1neuron
I0415 16:17:56.859467     1 net.cpp:408] encode1neuron <- ip17
I0415 16:17:56.859490     1 net.cpp:382] encode1neuron -> encode
I0415 16:17:56.859606     1 net.cpp:124] Setting up encode1neuron
I0415 16:17:56.859761     1 net.cpp:131] Top shape: 100 512 (51200)
I0415 16:17:56.859786     1 net.cpp:139] Memory required for data: 3482800
I0415 16:17:56.860023     1 layer_factory.hpp:77] Creating layer ip5
I0415 16:17:56.860072     1 net.cpp:86] Creating Layer ip5
I0415 16:17:56.860293     1 net.cpp:408] ip5 <- encode
I0415 16:17:56.860411     1 net.cpp:382] ip5 -> ip6
I0415 16:17:56.864053     1 net.cpp:124] Setting up ip5
I0415 16:17:56.864123     1 net.cpp:131] Top shape: 100 512 (51200)
I0415 16:17:56.864141     1 net.cpp:139] Memory required for data: 3687600
I0415 16:17:56.864162     1 layer_factory.hpp:77] Creating layer ip6_ip5_0_split
I0415 16:17:56.864182     1 net.cpp:86] Creating Layer ip6_ip5_0_split
I0415 16:17:56.864436     1 net.cpp:408] ip6_ip5_0_split <- ip6
I0415 16:17:56.864495     1 net.cpp:382] ip6_ip5_0_split -> ip6_ip5_0_split_0
I0415 16:17:56.864708     1 net.cpp:382] ip6_ip5_0_split -> ip6_ip5_0_split_1
I0415 16:17:56.864758     1 net.cpp:124] Setting up ip6_ip5_0_split
I0415 16:17:56.864868     1 net.cpp:131] Top shape: 100 512 (51200)
I0415 16:17:56.865005     1 net.cpp:131] Top shape: 100 512 (51200)
I0415 16:17:56.865046     1 net.cpp:139] Memory required for data: 4097200
I0415 16:17:56.865303     1 layer_factory.hpp:77] Creating layer accuracy
I0415 16:17:56.865350     1 net.cpp:86] Creating Layer accuracy
I0415 16:17:56.865572     1 net.cpp:408] accuracy <- ip6_ip5_0_split_0
I0415 16:17:56.865617     1 net.cpp:408] accuracy <- label_cifar_1_split_0
I0415 16:17:56.865747     1 net.cpp:382] accuracy -> accuracy
…
