…
I0415 10:59:03.060041     1 net.cpp:296] The NetState phase (0) differed from the phase (1) specified by a rule in layer cifar
I0415 10:59:03.060549     1 net.cpp:53] Initializing net from parameters: 
name: "CIFAR10_mlp"
state {
  phase: TRAIN
  level: 0
  stage: ""
}
layer {
  name: "cifar"
  type: "Data"
  top: "data"
  top: "label"
  include {
    phase: TRAIN
  }
  transform_param {
    mean_file: "examples/cifar10/mean.binaryproto"
  }
  data_param {
    source: "examples/cifar10/cifar10_train_lmdb"
    batch_size: 100
    backend: LMDB
  }
}
layer {
  name: "ip11"
  type: "InnerProduct"
  bottom: "data"
  top: "ip11"
  param {
    lr_mult: 1
  }
  param {
    lr_mult: 2
  }
  inner_product_param {
    num_output: 512
    weight_filler {
      type: "xavier"
    }
    bias_filler {
      type: "constant"
    }
  }
}
layer {
  name: "relu1"
  type: "ReLU"
  bottom: "ip11"
  top: "ip11"
}
layer {
  name: "ip14"
  type: "InnerProduct"
  bottom: "ip11"
  top: "ip14"
  param {
    lr_mult: 1
  }
  param {
    lr_mult: 2
  }
  inner_product_param {
    num_output: 512
    weight_filler {
      type: "xavier"
    }
    bias_filler {
      type: "constant"
    }
  }
}
layer {
  name: "relu4"
  type: "ReLU"
  bottom: "ip14"
  top: "ip14"
}
layer {
  name: "ip15"
  type: "InnerProduct"
  bottom: "ip14"
  top: "ip15"
  param {
    lr_mult: 1
  }
  param {
    lr_mult: 2
  }
  inner_product_param {
    num_output: 512
    weight_filler {
      type: "xavier"
    }
    bias_filler {
      type: "constant"
    }
  }
}
layer {
  name: "relu5"
  type: "ReLU"
  bottom: "ip15"
  top: "ip15"
}
layer {
  name: "ip5"
  type: "InnerProduct"
  bottom: "ip15"
  top: "ip6"
  param {
    lr_mult: 1
  }
  param {
    lr_mult: 2
  }
  inner_product_param {
    num_output: 512
    weight_filler {
      type: "gaussian"
      std: 0.1
    }
    bias_filler {
      type: "constant"
    }
  }
}
layer {
  name: "accuracy"
  type: "Accuracy"
  bottom: "ip6"
  bottom: "label"
  top: "accuracy"
}
layer {
  name: "loss"
  type: "SoftmaxWithLoss"
  bottom: "ip6"
  bottom: "label"
  top: "loss"
}
I0415 10:59:03.062041     1 layer_factory.hpp:77] Creating layer cifar
I0415 10:59:03.075611     1 db_lmdb.cpp:35] Opened lmdb examples/cifar10/cifar10_train_lmdb
I0415 10:59:03.077409     1 net.cpp:86] Creating Layer cifar
I0415 10:59:03.077520     1 net.cpp:382] cifar -> data
I0415 10:59:03.077559     1 net.cpp:382] cifar -> label
I0415 10:59:03.077920     1 data_transformer.cpp:25] Loading mean file from: examples/cifar10/mean.binaryproto
I0415 10:59:03.080688     1 data_layer.cpp:45] output data size: 100,3,32,32
I0415 10:59:03.081342     1 net.cpp:124] Setting up cifar
I0415 10:59:03.081383     1 net.cpp:131] Top shape: 100 3 32 32 (307200)
I0415 10:59:03.081395     1 net.cpp:131] Top shape: 100 (100)
I0415 10:59:03.081400     1 net.cpp:139] Memory required for data: 1229200
I0415 10:59:03.081456     1 layer_factory.hpp:77] Creating layer label_cifar_1_split
I0415 10:59:03.081495     1 net.cpp:86] Creating Layer label_cifar_1_split
I0415 10:59:03.081503     1 net.cpp:408] label_cifar_1_split <- label
I0415 10:59:03.081519     1 net.cpp:382] label_cifar_1_split -> label_cifar_1_split_0
I0415 10:59:03.081647     1 net.cpp:382] label_cifar_1_split -> label_cifar_1_split_1
I0415 10:59:03.081743     1 net.cpp:124] Setting up label_cifar_1_split
I0415 10:59:03.081758     1 net.cpp:131] Top shape: 100 (100)
I0415 10:59:03.081771     1 net.cpp:131] Top shape: 100 (100)
I0415 10:59:03.081863     1 net.cpp:139] Memory required for data: 1230000
I0415 10:59:03.081877     1 layer_factory.hpp:77] Creating layer ip11
I0415 10:59:03.081900     1 net.cpp:86] Creating Layer ip11
I0415 10:59:03.081912     1 net.cpp:408] ip11 <- data
I0415 10:59:03.082001     1 net.cpp:382] ip11 -> ip11
I0415 10:59:03.098974     1 net.cpp:124] Setting up ip11
I0415 10:59:03.099045     1 net.cpp:131] Top shape: 100 512 (51200)
I0415 10:59:03.099053     1 net.cpp:139] Memory required for data: 1434800
I0415 10:59:03.099086     1 layer_factory.hpp:77] Creating layer relu1
I0415 10:59:03.099102     1 net.cpp:86] Creating Layer relu1
I0415 10:59:03.099108     1 net.cpp:408] relu1 <- ip11
I0415 10:59:03.099117     1 net.cpp:369] relu1 -> ip11 (in-place)
I0415 10:59:03.099131     1 net.cpp:124] Setting up relu1
I0415 10:59:03.099158     1 net.cpp:131] Top shape: 100 512 (51200)
I0415 10:59:03.099167     1 net.cpp:139] Memory required for data: 1639600
I0415 10:59:03.099175     1 layer_factory.hpp:77] Creating layer ip14
I0415 10:59:03.099191     1 net.cpp:86] Creating Layer ip14
I0415 10:59:03.099261     1 net.cpp:408] ip14 <- ip11
I0415 10:59:03.099280     1 net.cpp:382] ip14 -> ip14
I0415 10:59:03.103224     1 net.cpp:124] Setting up ip14
I0415 10:59:03.103303     1 net.cpp:131] Top shape: 100 512 (51200)
I0415 10:59:03.103312     1 net.cpp:139] Memory required for data: 1844400
I0415 10:59:03.103341     1 layer_factory.hpp:77] Creating layer relu4
I0415 10:59:03.103404     1 net.cpp:86] Creating Layer relu4
I0415 10:59:03.103428     1 net.cpp:408] relu4 <- ip14
I0415 10:59:03.103441     1 net.cpp:369] relu4 -> ip14 (in-place)
I0415 10:59:03.103453     1 net.cpp:124] Setting up relu4
I0415 10:59:03.103833     1 net.cpp:131] Top shape: 100 512 (51200)
I0415 10:59:03.103865     1 net.cpp:139] Memory required for data: 2049200
I0415 10:59:03.104132     1 layer_factory.hpp:77] Creating layer ip15
I0415 10:59:03.104151     1 net.cpp:86] Creating Layer ip15
I0415 10:59:03.104156     1 net.cpp:408] ip15 <- ip14
I0415 10:59:03.104416     1 net.cpp:382] ip15 -> ip15
I0415 10:59:03.107473     1 net.cpp:124] Setting up ip15
I0415 10:59:03.107512     1 net.cpp:131] Top shape: 100 512 (51200)
I0415 10:59:03.107518     1 net.cpp:139] Memory required for data: 2254000
I0415 10:59:03.107534     1 layer_factory.hpp:77] Creating layer relu5
I0415 10:59:03.107839     1 net.cpp:86] Creating Layer relu5
I0415 10:59:03.107873     1 net.cpp:408] relu5 <- ip15
I0415 10:59:03.107892     1 net.cpp:369] relu5 -> ip15 (in-place)
I0415 10:59:03.107909     1 net.cpp:124] Setting up relu5
I0415 10:59:03.108170     1 net.cpp:131] Top shape: 100 512 (51200)
I0415 10:59:03.108201     1 net.cpp:139] Memory required for data: 2458800
I0415 10:59:03.108208     1 layer_factory.hpp:77] Creating layer ip5
I0415 10:59:03.108222     1 net.cpp:86] Creating Layer ip5
I0415 10:59:03.108456     1 net.cpp:408] ip5 <- ip15
I0415 10:59:03.108573     1 net.cpp:382] ip5 -> ip6
I0415 10:59:03.112416     1 net.cpp:124] Setting up ip5
I0415 10:59:03.112465     1 net.cpp:131] Top shape: 100 512 (51200)
I0415 10:59:03.112473     1 net.cpp:139] Memory required for data: 2663600
I0415 10:59:03.112484     1 layer_factory.hpp:77] Creating layer ip6_ip5_0_split
I0415 10:59:03.112494     1 net.cpp:86] Creating Layer ip6_ip5_0_split
I0415 10:59:03.112500     1 net.cpp:408] ip6_ip5_0_split <- ip6
I0415 10:59:03.112510     1 net.cpp:382] ip6_ip5_0_split -> ip6_ip5_0_split_0
I0415 10:59:03.112524     1 net.cpp:382] ip6_ip5_0_split -> ip6_ip5_0_split_1
I0415 10:59:03.112553     1 net.cpp:124] Setting up ip6_ip5_0_split
I0415 10:59:03.112663     1 net.cpp:131] Top shape: 100 512 (51200)
I0415 10:59:03.112938     1 net.cpp:131] Top shape: 100 512 (51200)
I0415 10:59:03.112969     1 net.cpp:139] Memory required for data: 3073200
I0415 10:59:03.113064     1 layer_factory.hpp:77] Creating layer accuracy
I0415 10:59:03.113159     1 net.cpp:86] Creating Layer accuracy
I0415 10:59:03.113173     1 net.cpp:408] accuracy <- ip6_ip5_0_split_0
I0415 10:59:03.113298     1 net.cpp:408] accuracy <- label_cifar_1_split_0
I0415 10:59:03.113370     1 net.cpp:382] accuracy -> accuracy
…
