…
I0416 08:33:47.924003     1 net.cpp:296] The NetState phase (0) differed from the phase (1) specified by a rule in layer cifar
I0416 08:33:47.924510     1 net.cpp:53] Initializing net from parameters: 
name: "CIFAR10_mlp"
state {
  phase: TRAIN
  level: 0
  stage: ""
}
layer {
  name: "cifar"
  type: "Data"
  top: "data"
  top: "label"
  include {
    phase: TRAIN
  }
  transform_param {
    mean_file: "examples/cifar10/mean.binaryproto"
  }
  data_param {
    source: "examples/cifar10/cifar10_train_lmdb"
    batch_size: 100
    backend: LMDB
  }
}
layer {
  name: "ip11"
  type: "InnerProduct"
  bottom: "data"
  top: "ip11"
  param {
    lr_mult: 1
  }
  param {
    lr_mult: 2
  }
  inner_product_param {
    num_output: 1024
    weight_filler {
      type: "xavier"
    }
    bias_filler {
      type: "constant"
    }
  }
}
layer {
  name: "relu1"
  type: "ReLU"
  bottom: "ip11"
  top: "ip11"
}
layer {
  name: "ip14"
  type: "InnerProduct"
  bottom: "ip11"
  top: "ip14"
  param {
    lr_mult: 1
  }
  param {
    lr_mult: 2
  }
  inner_product_param {
    num_output: 1024
    weight_filler {
      type: "xavier"
    }
    bias_filler {
      type: "constant"
    }
  }
}
layer {
  name: "relu4"
  type: "ReLU"
  bottom: "ip14"
  top: "ip14"
}
layer {
  name: "ip15"
  type: "InnerProduct"
  bottom: "ip14"
  top: "ip15"
  param {
    lr_mult: 1
  }
  param {
    lr_mult: 2
  }
  inner_product_param {
    num_output: 1024
    weight_filler {
      type: "xavier"
    }
    bias_filler {
      type: "constant"
    }
  }
}
layer {
  name: "relu5"
  type: "ReLU"
  bottom: "ip15"
  top: "ip15"
}
layer {
  name: "ip16"
  type: "InnerProduct"
  bottom: "ip15"
  top: "ip16"
  param {
    lr_mult: 1
  }
  param {
    lr_mult: 2
  }
  inner_product_param {
    num_output: 1024
    weight_filler {
      type: "xavier"
    }
    bias_filler {
      type: "constant"
    }
  }
}
layer {
  name: "relu6"
  type: "ReLU"
  bottom: "ip16"
  top: "ip16"
}
layer {
  name: "ip17"
  type: "InnerProduct"
  bottom: "ip16"
  top: "ip17"
  param {
    lr_mult: 1
  }
  param {
    lr_mult: 2
  }
  inner_product_param {
    num_output: 1024
    weight_filler {
      type: "xavier"
    }
    bias_filler {
      type: "constant"
    }
  }
}
layer {
  name: "relu7"
  type: "ReLU"
  bottom: "ip17"
  top: "ip17"
}
layer {
  name: "ip18"
  type: "InnerProduct"
  bottom: "ip17"
  top: "ip18"
  param {
    lr_mult: 1
  }
  param {
    lr_mult: 2
  }
  inner_product_param {
    num_output: 1024
    weight_filler {
      type: "xavier"
    }
    bias_filler {
      type: "constant"
    }
  }
}
layer {
  name: "relu8"
  type: "ReLU"
  bottom: "ip18"
  top: "ip18"
}
layer {
  name: "encode1neuron"
  type: "Sigmoid"
  bottom: "ip18"
  top: "encode"
}
layer {
  name: "ip5"
  type: "InnerProduct"
  bottom: "encode"
  top: "ip6"
  param {
    lr_mult: 1
  }
  param {
    lr_mult: 2
  }
  inner_product_param {
    num_output: 1024
    weight_filler {
      type: "gaussian"
      std: 0.1
    }
    bias_filler {
      type: "constant"
    }
  }
}
layer {
  name: "accuracy"
  type: "Accuracy"
  bottom: "ip6"
  bottom: "label"
  top: "accuracy"
}
layer {
  name: "loss"
  type: "SoftmaxWithLoss"
  bottom: "ip6"
  bottom: "label"
  top: "loss"
}
I0416 08:33:47.925918     1 layer_factory.hpp:77] Creating layer cifar
I0416 08:33:47.929505     1 db_lmdb.cpp:35] Opened lmdb examples/cifar10/cifar10_train_lmdb
I0416 08:33:47.932554     1 net.cpp:86] Creating Layer cifar
I0416 08:33:47.932603     1 net.cpp:382] cifar -> data
I0416 08:33:47.932881     1 net.cpp:382] cifar -> label
I0416 08:33:47.932971     1 data_transformer.cpp:25] Loading mean file from: examples/cifar10/mean.binaryproto
I0416 08:33:47.935789     1 data_layer.cpp:45] output data size: 100,3,32,32
I0416 08:33:47.936305     1 net.cpp:124] Setting up cifar
I0416 08:33:47.936345     1 net.cpp:131] Top shape: 100 3 32 32 (307200)
I0416 08:33:47.936357     1 net.cpp:131] Top shape: 100 (100)
I0416 08:33:47.936369     1 net.cpp:139] Memory required for data: 1229200
I0416 08:33:47.936388     1 layer_factory.hpp:77] Creating layer label_cifar_1_split
I0416 08:33:47.937109     1 net.cpp:86] Creating Layer label_cifar_1_split
I0416 08:33:47.937584     1 net.cpp:408] label_cifar_1_split <- label
I0416 08:33:47.937716     1 net.cpp:382] label_cifar_1_split -> label_cifar_1_split_0
I0416 08:33:47.937819     1 net.cpp:382] label_cifar_1_split -> label_cifar_1_split_1
I0416 08:33:47.937855     1 net.cpp:124] Setting up label_cifar_1_split
I0416 08:33:47.937868     1 net.cpp:131] Top shape: 100 (100)
I0416 08:33:47.938159     1 net.cpp:131] Top shape: 100 (100)
I0416 08:33:47.938169     1 net.cpp:139] Memory required for data: 1230000
I0416 08:33:47.938177     1 layer_factory.hpp:77] Creating layer ip11
I0416 08:33:47.938194     1 net.cpp:86] Creating Layer ip11
I0416 08:33:47.938200     1 net.cpp:408] ip11 <- data
I0416 08:33:47.938210     1 net.cpp:382] ip11 -> ip11
I0416 08:33:47.979197     1 net.cpp:124] Setting up ip11
I0416 08:33:47.979266     1 net.cpp:131] Top shape: 100 1024 (102400)
I0416 08:33:47.979275     1 net.cpp:139] Memory required for data: 1639600
I0416 08:33:47.979310     1 layer_factory.hpp:77] Creating layer relu1
I0416 08:33:47.979332     1 net.cpp:86] Creating Layer relu1
I0416 08:33:47.979341     1 net.cpp:408] relu1 <- ip11
I0416 08:33:47.979351     1 net.cpp:369] relu1 -> ip11 (in-place)
I0416 08:33:47.979363     1 net.cpp:124] Setting up relu1
I0416 08:33:47.979459     1 net.cpp:131] Top shape: 100 1024 (102400)
I0416 08:33:47.979482     1 net.cpp:139] Memory required for data: 2049200
I0416 08:33:47.979499     1 layer_factory.hpp:77] Creating layer ip14
I0416 08:33:47.979545     1 net.cpp:86] Creating Layer ip14
I0416 08:33:47.979570     1 net.cpp:408] ip14 <- ip11
I0416 08:33:47.979645     1 net.cpp:382] ip14 -> ip14
I0416 08:33:47.994386     1 net.cpp:124] Setting up ip14
I0416 08:33:47.994452     1 net.cpp:131] Top shape: 100 1024 (102400)
I0416 08:33:47.994460     1 net.cpp:139] Memory required for data: 2458800
I0416 08:33:47.994477     1 layer_factory.hpp:77] Creating layer relu4
I0416 08:33:47.994491     1 net.cpp:86] Creating Layer relu4
I0416 08:33:47.994498     1 net.cpp:408] relu4 <- ip14
I0416 08:33:47.994506     1 net.cpp:369] relu4 -> ip14 (in-place)
I0416 08:33:47.994580     1 net.cpp:124] Setting up relu4
I0416 08:33:47.994609     1 net.cpp:131] Top shape: 100 1024 (102400)
I0416 08:33:47.994617     1 net.cpp:139] Memory required for data: 2868400
I0416 08:33:47.994626     1 layer_factory.hpp:77] Creating layer ip15
I0416 08:33:47.994640     1 net.cpp:86] Creating Layer ip15
I0416 08:33:47.994657     1 net.cpp:408] ip15 <- ip14
I0416 08:33:47.994671     1 net.cpp:382] ip15 -> ip15
I0416 08:33:48.008596     1 net.cpp:124] Setting up ip15
I0416 08:33:48.008666     1 net.cpp:131] Top shape: 100 1024 (102400)
I0416 08:33:48.008674     1 net.cpp:139] Memory required for data: 3278000
I0416 08:33:48.008692     1 layer_factory.hpp:77] Creating layer relu5
I0416 08:33:48.008715     1 net.cpp:86] Creating Layer relu5
I0416 08:33:48.008723     1 net.cpp:408] relu5 <- ip15
I0416 08:33:48.008734     1 net.cpp:369] relu5 -> ip15 (in-place)
I0416 08:33:48.008746     1 net.cpp:124] Setting up relu5
I0416 08:33:48.008882     1 net.cpp:131] Top shape: 100 1024 (102400)
I0416 08:33:48.008889     1 net.cpp:139] Memory required for data: 3687600
I0416 08:33:48.008894     1 layer_factory.hpp:77] Creating layer ip16
I0416 08:33:48.009086     1 net.cpp:86] Creating Layer ip16
I0416 08:33:48.009101     1 net.cpp:408] ip16 <- ip15
I0416 08:33:48.009125     1 net.cpp:382] ip16 -> ip16
I0416 08:33:48.021497     1 net.cpp:124] Setting up ip16
I0416 08:33:48.021566     1 net.cpp:131] Top shape: 100 1024 (102400)
I0416 08:33:48.021574     1 net.cpp:139] Memory required for data: 4097200
I0416 08:33:48.021587     1 layer_factory.hpp:77] Creating layer relu6
I0416 08:33:48.021600     1 net.cpp:86] Creating Layer relu6
I0416 08:33:48.021606     1 net.cpp:408] relu6 <- ip16
I0416 08:33:48.021615     1 net.cpp:369] relu6 -> ip16 (in-place)
I0416 08:33:48.021628     1 net.cpp:124] Setting up relu6
I0416 08:33:48.021636     1 net.cpp:131] Top shape: 100 1024 (102400)
I0416 08:33:48.021639     1 net.cpp:139] Memory required for data: 4506800
I0416 08:33:48.021644     1 layer_factory.hpp:77] Creating layer ip17
I0416 08:33:48.021654     1 net.cpp:86] Creating Layer ip17
I0416 08:33:48.021659     1 net.cpp:408] ip17 <- ip16
I0416 08:33:48.021677     1 net.cpp:382] ip17 -> ip17
I0416 08:33:48.034523     1 net.cpp:124] Setting up ip17
I0416 08:33:48.034590     1 net.cpp:131] Top shape: 100 1024 (102400)
I0416 08:33:48.034597     1 net.cpp:139] Memory required for data: 4916400
I0416 08:33:48.034615     1 layer_factory.hpp:77] Creating layer relu7
I0416 08:33:48.034641     1 net.cpp:86] Creating Layer relu7
I0416 08:33:48.034656     1 net.cpp:408] relu7 <- ip17
I0416 08:33:48.034669     1 net.cpp:369] relu7 -> ip17 (in-place)
I0416 08:33:48.034683     1 net.cpp:124] Setting up relu7
I0416 08:33:48.034690     1 net.cpp:131] Top shape: 100 1024 (102400)
I0416 08:33:48.034695     1 net.cpp:139] Memory required for data: 5326000
I0416 08:33:48.034700     1 layer_factory.hpp:77] Creating layer ip18
I0416 08:33:48.034824     1 net.cpp:86] Creating Layer ip18
I0416 08:33:48.034834     1 net.cpp:408] ip18 <- ip17
I0416 08:33:48.034845     1 net.cpp:382] ip18 -> ip18
I0416 08:33:48.048430     1 net.cpp:124] Setting up ip18
I0416 08:33:48.048499     1 net.cpp:131] Top shape: 100 1024 (102400)
I0416 08:33:48.048507     1 net.cpp:139] Memory required for data: 5735600
I0416 08:33:48.048521     1 layer_factory.hpp:77] Creating layer relu8
I0416 08:33:48.048533     1 net.cpp:86] Creating Layer relu8
I0416 08:33:48.048540     1 net.cpp:408] relu8 <- ip18
I0416 08:33:48.048549     1 net.cpp:369] relu8 -> ip18 (in-place)
I0416 08:33:48.048562     1 net.cpp:124] Setting up relu8
I0416 08:33:48.048568     1 net.cpp:131] Top shape: 100 1024 (102400)
I0416 08:33:48.048573     1 net.cpp:139] Memory required for data: 6145200
I0416 08:33:48.048578     1 layer_factory.hpp:77] Creating layer encode1neuron
I0416 08:33:48.048584     1 net.cpp:86] Creating Layer encode1neuron
I0416 08:33:48.048589     1 net.cpp:408] encode1neuron <- ip18
I0416 08:33:48.048596     1 net.cpp:382] encode1neuron -> encode
I0416 08:33:48.048605     1 net.cpp:124] Setting up encode1neuron
I0416 08:33:48.048697     1 net.cpp:131] Top shape: 100 1024 (102400)
I0416 08:33:48.048705     1 net.cpp:139] Memory required for data: 6554800
I0416 08:33:48.048710     1 layer_factory.hpp:77] Creating layer ip5
I0416 08:33:48.048737     1 net.cpp:86] Creating Layer ip5
I0416 08:33:48.049037     1 net.cpp:408] ip5 <- encode
I0416 08:33:48.049075     1 net.cpp:382] ip5 -> ip6
I0416 08:33:48.067677     1 net.cpp:124] Setting up ip5
I0416 08:33:48.067741     1 net.cpp:131] Top shape: 100 1024 (102400)
I0416 08:33:48.067754     1 net.cpp:139] Memory required for data: 6964400
I0416 08:33:48.067767     1 layer_factory.hpp:77] Creating layer ip6_ip5_0_split
I0416 08:33:48.067795     1 net.cpp:86] Creating Layer ip6_ip5_0_split
I0416 08:33:48.067804     1 net.cpp:408] ip6_ip5_0_split <- ip6
I0416 08:33:48.067816     1 net.cpp:382] ip6_ip5_0_split -> ip6_ip5_0_split_0
I0416 08:33:48.067828     1 net.cpp:382] ip6_ip5_0_split -> ip6_ip5_0_split_1
I0416 08:33:48.068083     1 net.cpp:124] Setting up ip6_ip5_0_split
I0416 08:33:48.068184     1 net.cpp:131] Top shape: 100 1024 (102400)
I0416 08:33:48.068202     1 net.cpp:131] Top shape: 100 1024 (102400)
I0416 08:33:48.068212     1 net.cpp:139] Memory required for data: 7783600
I0416 08:33:48.068222     1 layer_factory.hpp:77] Creating layer accuracy
I0416 08:33:48.068302     1 net.cpp:86] Creating Layer accuracy
I0416 08:33:48.068334     1 net.cpp:408] accuracy <- ip6_ip5_0_split_0
I0416 08:33:48.068347     1 net.cpp:408] accuracy <- label_cifar_1_split_0
I0416 08:33:48.068565     1 net.cpp:382] accuracy -> accuracy
…
